DPF-Merge-gaussian-learnparameter/logs/linear_dim2_5_NF^True_DPF_0.25_0.002_resample^soft_CRNVP_maze_nav01_0.1_1e-05_elbo_0.01_split_0.9_mode_offline_slice_size_10_onlinetype_elbo/models/e2e_model_bestval_e2e.pth (torch, 830737 bytes, 326 tensors)

transition.mult f4 [2, 2]
0	0x3f7ff882	0.9998857
1	0xb8edf8a5	-0.00011347354
2	0xb8bbed84	-8.9610956e-05
3	0x3f7ffa10	0.9999094

emission.mult f4 [2]
0	0x3f65e39d	0.89800435
1	0x3f65f170	0.8982153

proposal.scale_0_vector f4 [2]
0	0x3f7d43b6	0.98931444
1	0x3f760ad2	0.9611026

proposal.scale_t_vector f4 [2]
0	0x3f8be3fa	1.0928948
1	0x3f88ad07	1.0677804

proposal.transition.mult f4 [2, 2]
0	0x3f7ff882	0.9998857
1	0xb8edf8a5	-0.00011347354
2	0xb8bbed84	-8.9610956e-05
3	0x3f7ffa10	0.9999094

proposal.lin_0.weight f4 [2, 2]
0	0x3ee6bb6b	0.45064864
1	0xbf0143d4	-0.5049412
2	0x3f11af99	0.56908566
3	0x3eeb2c4a	0.45932227

proposal.lin_t.weight f4 [2, 4]
0	0x3eb8e6fb	0.36113724
1	0xbe987043	-0.2977315
2	0xbe75c249	-0.23999895
3	0x3e858280	0.26076126
4	0xbec2a24c	-0.38014448
5	0x3ed27a50	0.41108942
6	0x3dd30870	0.10304344
7	0x3e1ce0ec	0.15320176

proposal.nvp.flows.0.t1.network.0.weight f4 [4, 3]
0	0x3c5dbfdb	0.013534511
1	0xbd95af23	-0.07308795
2	0xbe1e651e	-0.1546826
3	0xbdd0985b	-0.101853095
4	0xbdd93ce8	-0.1060732
5	0xbdedaf1c	-0.11605665
6	0x3c22e6ef	0.009942754
7	0x3e018306	0.12647638
8	0xbe65b0f0	-0.22430778
9	0x3d96799f	0.07347416
10	0xbc9ffb89	-0.019529121
11	0xbe63bd10	-0.2224009

proposal.nvp.flows.0.t1.network.0.bias f4 [4]
0	0x3a24ac69	0.00062817946
1	0x3c5122fc	0.012764689
2	0xbbf83e5a	-0.0075757923
3	0xbc05cede	-0.008166997

proposal.nvp.flows.0.t1.network.2.weight f4 [4, 4]
0	0x3d9e863f	0.07740449
1	0x3e0caf25	0.13738687
2	0x3dc6bb40	0.09703684
3	0xbd57bfa3	-0.052672993
4	0x3e3c6f0a	0.18401733
5	0xbdce0364	-0.100592405
6	0x3db28f18	0.08718699
7	0x3e381363	0.17976145
8	0xbe0e6f56	-0.13909659
9	0xbd3eeb87	-0.046611335
10	0xbdcd8858	-0.10035771
11	0xbe471bcc	-0.19444197
12	0x3dad22bc	0.08453891
13	0xbc903523	-0.017603463
14	0x3e667406	0.22505197
15	0x3d369ecb	0.04458503

proposal.nvp.flows.0.t1.network.2.bias f4 [4]
0	0x3bc62744	0.0060471613
1	0x3c9bde6d	0.01902696
2	0x3c38b3bf	0.011273324
3	0xbc196f44	-0.009364907

proposal.nvp.flows.0.t1.network.4.weight f4 [1, 4]
0	0xbd09a5a9	-0.03360525
1	0xbd217752	-0.039420433
2	0x3e26d412	0.16291836
3	0xbda17774	-0.07884112

proposal.nvp.flows.0.s1.network.0.weight f4 [4, 3]
0	0xbd8cfe00	-0.06884384
1	0x3dad5d02	0.084650055
2	0xbcaa20cb	-0.02076759
3	0xbdcdccb8	-0.10048813
4	0x3d90816f	0.070559375
5	0xbdffd104	-0.124910384
6	0x3d7e9261	0.062151317
7	0xbe02b5d8	-0.1276468
8	0x3d96e6c6	0.07368235
9	0x3e217de7	0.15770684
10	0xbde5de45	-0.11224035
11	0x3b76cc73	0.0037658482

proposal.nvp.flows.0.s1.network.0.bias f4 [4]
0	0x00000000	0.0
1	0x00000000	0.0
2	0x00000000	0.0
3	0x00000000	0.0

proposal.nvp.flows.0.s1.network.2.weight f4 [4, 4]
0	0x3e0510c5	0.12994678
1	0x3c948a8e	0.018132474
2	0xbd9492db	-0.07254573
3	0x3a52686f	0.0008026426
4	0xbd8dc5c4	-0.069224864
5	0xbde30e18	-0.110866725
6	0x3dd303c3	0.10303452
7	0x3d3a822b	0.045534294
8	0x3d95b20b	0.073093496
9	0xbcd4a2ea	-0.02595659
10	0x3ce96250	0.028489262
11	0x3d3ce9d3	0.04612143
12	0x3d7b2f5d	0.061324466
13	0xbc999d58	-0.018751785
14	0x3ded63c3	0.11591294
15	0x3bb435ec	0.005499592

proposal.nvp.flows.0.s1.network.2.bias f4 [4]
0	0x00000000	0.0
1	0x00000000	0.0
2	0x00000000	0.0
3	0x00000000	0.0

proposal.nvp.flows.0.s1.network.4.weight f4 [1, 4]
0	0xbd293eba	-0.041319586
1	0x3d2d052a	0.042241253
2	0x3ddb831a	0.10718365
3	0xbe2109de	-0.1572642

proposal.nvp.flows.0.t2.network.0.weight f4 [4, 3]
0	0xbd026faf	-0.03184479
1	0x3c54268c	0.012948643
2	0xbd1cb2ad	-0.038256336
3	0xbd91e24d	-0.071232416
4	0xbe3135a5	-0.1730562
5	0x3d897e9c	0.06713602
6	0x3e0243e0	0.12721205
7	0x3dd1d618	0.10245913
8	0xbdb129fe	-0.086505875
9	0xbd04b672	-0.032400556
10	0xbe0c47a8	-0.1369921
11	0x3dce542b	0.100746475

proposal.nvp.flows.0.t2.network.0.bias f4 [4]
0	0x3c2a0d1c	0.010379102
1	0xbaab20bc	-0.001305602
2	0x3a2de374	0.00066333194
3	0xbb8ae8d8	-0.004239183

proposal.nvp.flows.0.t2.network.2.weight f4 [4, 4]
0	0x3d9d98ba	0.07695146
1	0xbe4bbf8e	-0.19897291
2	0x3e947410	0.289948
3	0xbdb877c6	-0.0900722
4	0x3d6b9b54	0.05752118
5	0x3d28683d	0.041115034
6	0x3ba6a646	0.0050857393
7	0x3d32ef05	0.043684978
8	0xbc78cd66	-0.01518569
9	0xbe337349	-0.17524447
10	0x3e233bef	0.15940832
11	0xbe390a93	-0.1807044
12	0xbd84411e	-0.064577326
13	0xbb94f68d	-0.0045459927
14	0xbdd8175f	-0.10551333
15	0xbe3c3a6b	-0.1838166

proposal.nvp.flows.0.t2.network.2.bias f4 [4]
0	0xbb9b72a5	-0.0047438913
1	0x3c110477	0.008851162
2	0xbbe341de	-0.006935342
3	0x3c3c1993	0.011480707

proposal.nvp.flows.0.t2.network.4.weight f4 [1, 4]
0	0x3dec746e	0.11545645
1	0xbd8e9c97	-0.06963461
2	0x3e590016	0.21191439
3	0x3cc07810	0.02349475

proposal.nvp.flows.0.s2.network.0.weight f4 [4, 3]
0	0xbbd596b8	-0.006518211
1	0xbdcfcbb0	-0.10146272
2	0x3d5c3976	0.053765737
3	0x3e0c78b3	0.13717918
4	0xbe48f449	-0.19624437
5	0xbda05d88	-0.0783034
6	0x3c3bb80c	0.011457454
7	0x3dd35fd9	0.10321016
8	0x3d254a40	0.040354013
9	0xbc2be0cb	-0.010490607
10	0x3e1dce80	0.15410805
11	0x3c11140b	0.008854876

proposal.nvp.flows.0.s2.network.0.bias f4 [4]
0	0x00000000	0.0
1	0x00000000	0.0
2	0x00000000	0.0
3	0x00000000	0.0

proposal.nvp.flows.0.s2.network.2.weight f4 [4, 4]
0	0xbe6cb3d5	-0.23115475
1	0x3d0662cb	0.03280906
2	0xbe1e9b7c	-0.15489
3	0xbe5923d3	-0.21205072
4	0x3c98f762	0.018672649
5	0xbd84c72b	-0.06483301
6	0x3dd74003	0.10510256
7	0xbdd74597	-0.1051132
8	0xbd177fd2	-0.036987133
9	0xbe3f38a5	-0.18673952
10	0x3e51ef6b	0.20501487
11	0x3d87f32b	0.066381775
12	0xbdf00587	-0.11719804
13	0xbe2202e7	-0.1582142
14	0xbd9e94ac	-0.07743201
15	0x3dd23425	0.10263852

proposal.nvp.flows.0.s2.network.2.bias f4 [4]
0	0x00000000	0.0
1	0x00000000	0.0
2	0x00000000	0.0
3	0x00000000	0.0

proposal.nvp.flows.0.s2.network.4.weight f4 [1, 4]
0	0x3d0dbd66	0.034604453
1	0x3d8f56d0	0.0699898
2	0xbe140328	-0.14454329
3	0xbc279078	-0.010227315

encoder.0.weight f4 [16, 2]
0	0x3f063b70	0.52434444
1	0x3edeac8d	0.4349102
2	0x3f208124	0.6269705
3	0xbd0999ac	-0.03359382
4	0xbe98424f	-0.2973809
5	0xbf31db94	-0.69475675
6	0x3e08526a	0.13312688
7	0x3e776f99	0.24163665
8	0xbd17253c	-0.036900744
9	0x3ed179bb	0.40913185
10	0xbda97d2d	-0.082758285
11	0x3d5f462e	0.054510288
12	0xbf1ffded	-0.62496835
13	0x3e23b955	0.15988667
14	0x3e56b69d	0.20968099
15	0xbe79c410	-0.24391198
16	0x3e61efc4	0.2206412
17	0xbf2bb455	-0.6707204
18	0x3f09f981	0.5389634
19	0xbf286ae1	-0.65788084
20	0x3eeb61d4	0.45973074
21	0xbe55e484	-0.20887953
22	0xbf317973	-0.6932594
23	0xbdcb8587	-0.09937578
24	0x3ec99e63	0.39378652
25	0xbcd88a58	-0.026433155
26	0xbef3f570	-0.4764819
27	0xbef3ab42	-0.47591597
28	0x3f0a2184	0.5395739
29	0xbf23a89e	-0.63929164
30	0xbeb94bf0	-0.36190748
31	0xbf261f9a	-0.6489197

encoder.0.bias f4 [16]
0	0xbf2e42ef	-0.6807088
1	0x3f286099	0.65772396
2	0xbe98b406	-0.29824847
3	0xba67c116	-0.0008840723
4	0xbe0a93b4	-0.13532907
5	0xbf149f8e	-0.5805596
6	0xbd85ca7c	-0.065327615
7	0xbf16769c	-0.58774734
8	0xbed37d1c	-0.41306388
9	0x3f053d79	0.52046925
10	0xbeecc7f4	-0.46246302
11	0x3e8b14e1	0.27164367
12	0xbe550172	-0.20801333
13	0x3e7a4725	0.24441202
14	0xbe0bf27e	-0.13666722
15	0x3edd2c7b	0.43197998

encoder.2.weight f4 [32, 16]
0	0x3e5fd142	0.2185717
1	0x3e60b030	0.2194221
2	0x3e41b324	0.18915993
3	0xbdbf0818	-0.09327716
4	0x3e1b4228	0.15161955
5	0xbe32bea4	-0.17455536
6	0xbe6ff108	-0.2343179
7	0x3e5f52b2	0.2180889
8	0xbd1233d8	-0.035693973
9	0x3e404698	0.1877693
10	0x3e0b35f2	0.13594797
11	0xbd539878	-0.051659077
12	0xbd185298	-0.037188143
13	0xbd2dbd88	-0.04241708
14	0xbe609ed0	-0.21935582
15	0x3e43f84c	0.19137686
16	0xbe11ede8	-0.1425091
17	0x3dc10e04	0.094265014
18	0x3e71200a	0.23547378
19	0xbe4f93de	-0.2027125
20	0xbe1763ea	-0.14784208
21	0x3e5128b0	0.20425677
22	0xbca72880	-0.020405054
23	0xbe64f626	-0.22359523
24	0x3da4bae0	0.08043456
25	0x3e34c1a6	0.17651996
26	0xbe2a3bcc	-0.16624373
27	0x3e393ae6	0.18088874
28	0x3e784a54	0.24247104
29	0x3e720e72	0.23638323
30	0x3e1521ae	0.14563629
31	0x3c899300	0.016793728
32	0x3dc8c7ac	0.098037094
33	0xbdaccbe0	-0.084373236
34	0x3d1c1050	0.038101494
35	0xbdfcdf64	-0.12347296
36	0x3e372606	0.17885599
37	0xbdadb150	-0.08481085
38	0xbe0d9178	-0.13825023
39	0xbd123510	-0.035695136
40	0x3d6b01b8	0.057374686
41	0x3d0afef0	0.033934534
42	0xbe1358c2	-0.14389327
43	0xbe1b92cc	-0.15192717
44	0xbe4dd006	-0.20098886
45	0xbdd82e80	-0.10555744
46	0xbcc24f30	-0.0237194
47	0x3e3e1198	0.18561399
48	0xbe000c26	-0.12504634
49	0xbb86d280	-0.004114449
50	0xbe00ed5a	-0.12590542
51	0xbdf221d8	-0.118228614
52	0xbe0cb6be	-0.13741586
53	0xbe7cfa36	-0.24704823
54	0xbe207b3e	-0.15672013
55	0xbd068a00	-0.03284645
56	0x3d493798	0.049125284
57	0x3dc75db0	0.09734666
58	0xbe3a88b8	-0.18216217
59	0xbe793b88	-0.24339116
60	0xbe0db000	-0.1383667
61	0xbe0a0d70	-0.13481688
62	0xbe07dc1a	-0.13267556
63	0x3e08b230	0.13349223
64	0x3d6ae4d0	0.05734712
65	0xbba0fec0	-0.004913181
66	0xbe362cc6	-0.17790517
67	0xbe23a682	-0.15981486
68	0x3e5a9824	0.213471
69	0xbe570d92	-0.2100127
70	0xbbaf8d00	-0.0053573847
71	0xbe613626	-0.21993312
72	0xbe7e63f4	-0.24842817
73	0x3cf3ead0	0.029775053
74	0xbdae30ac	-0.08505377
75	0xbe7270a4	-0.23675781
76	0xbe28538c	-0.1643812
77	0x3e634e7c	0.22197908
78	0xbdedd5f8	-0.11613077
79	0x3e3fd52c	0.18733662
80	0x3e73cefa	0.23809424
81	0xbe166e42	-0.14690498
82	0xbd053da0	-0.032529473
83	0x3e50396e	0.20334408
84	0xbda11168	-0.07864648
85	0x3dbac3bc	0.091193646
86	0x3e770d0a	0.24126068
87	0xbe72429e	-0.23658225
88	0x3d6149d0	0.055002034
89	0x3e78acda	0.24284688
90	0xbdd0fbc4	-0.102042705
91	0xbe7bda54	-0.24595004
92	0xbe0983a0	-0.13429117
93	0xbe1a98dc	-0.15097374
94	0x3d0691d8	0.03285393
95	0x3cf01750	0.029307991
96	0x3e0c0abe	0.13675973
97	0x3d644738	0.055731982
98	0x3e3cd8ca	0.18442073
99	0xbe325096	-0.17413554
100	0xbbf06480	-0.0073361993
101	0xbdb563b8	-0.088569105
102	0x3da68c90	0.08132279
103	0xbe1d8eb8	-0.15386474
104	0xbe3f1f7a	-0.18664351
105	0x3c818090	0.015808374
106	0xbdf7fe18	-0.121090114
107	0x3df4d2bc	0.11954257
108	0x3e1db500	0.15401077
109	0xbdfa94e0	-0.12235427
110	0xbd908858	-0.070572555
111	0xbcb00af0	-0.02148959
112	0xbdebfb00	-0.11522484
113	0x3c0e7320	0.00869444
114	0xbe4efe88	-0.20214283
115	0x3e329948	0.17441285
116	0x3e3fff9c	0.18749851
117	0x3da98614	0.082775265
118	0x3e6e031a	0.2324337
119	0x3d16cb98	0.036815256
120	0xbe0e7a6e	-0.1391389
121	0xbe0a892e	-0.13528892
122	0xbcbb83b0	-0.022889942
123	0x3e6eae9a	0.23308793
124	0x3d21ffa0	0.039550424
125	0x3dc25a84	0.09489921
126	0xbdca801c	-0.09887716
127	0x3e0167e4	0.12637287
128	0x3e7aec80	0.2450428
129	0xbe54a0fa	-0.20764533
130	0xbe6fed44	-0.23430353
131	0xbda67448	-0.08127648
132	0xbe0f24a6	-0.13978824
133	0xbe3d8b74	-0.18510228
134	0x3d9579fc	0.07298657
135	0xbe0fd026	-0.14044246
136	0x3e648bee	0.22319004
137	0xbd2cb230	-0.04216212
138	0xbcec44c0	-0.028841376
139	0x3e3e7bc6	0.18601903
140	0xbdc112f4	-0.09427443
141	0xbe206432	-0.15663221
142	0x3ca1d730	0.01975593
143	0x3e0df516	0.13863024
144	0xbe042d7e	-0.12907979
145	0xbe40f20e	-0.18842337
146	0xbe5735d6	-0.2101663
147	0xbe6fcaf0	-0.23417258
148	0x3e3ab83e	0.18234345
149	0xbd526838	-0.051368922
150	0x3da42cbc	0.08016345
151	0xbd8288cc	-0.06373748
152	0x3e4b599c	0.19858402
153	0x3db6c5f4	0.08924475
154	0x3e0196a4	0.12655121
155	0x3cd2b6c0	0.025721908
156	0x3daf6708	0.085645735
157	0x3e0fb1c4	0.14032656
158	0xbe41173c	-0.1885652
159	0x3e60bba8	0.21946585
160	0x3bbac500	0.0056997538
161	0x3cee5f70	0.029098243
162	0xbe67ca26	-0.22635707
163	0x3e088a76	0.13334069
164	0xbd275a38	-0.040857524
165	0x3e79fa42	0.24411872
166	0xbe034096	-0.12817606
167	0xbe4e6f40	-0.20159626
168	0xbe0ed5fe	-0.13948819
169	0x3df1db18	0.11809367
170	0xbe581c4c	-0.21104544
171	0xbe606764	-0.2191444
172	0x3e3b0922	0.18265203
173	0x3e127734	0.14303285
174	0x3d3c8500	0.046025276
175	0x3e33d33e	0.17561051
176	0xbe73c54e	-0.23805735
177	0x3dc7ecc4	0.09761956
178	0x3bda7140	0.0066663325
179	0xbda3b068	-0.07992631
180	0x3e113ff0	0.14184546
181	0xbe6bc9ae	-0.23026153
182	0x3e650498	0.22365034
183	0xbe1cf062	-0.15326074
184	0x3e6f08e0	0.2334323
185	0xbd23bed0	-0.039976895
186	0xbe479062	-0.19488671
187	0xbe0d3b5e	-0.13792178
188	0x3dc44698	0.09583777
189	0x3d8460ac	0.06463751
190	0x3e2913c8	0.16511452
191	0x3dfab1b4	0.122409254
192	0xbde48590	-0.111582875
193	0xbe371702	-0.1787987
194	0xbdccf1bc	-0.10007045
195	0xbe3d53e0	-0.18489027
196	0xbdf17668	-0.11790162
197	0xbe19a818	-0.15005529
198	0xbe51c116	-0.20483813
199	0xbc6ac6e0	-0.014329642
200	0xbe360f1c	-0.17779201
201	0xbd980f28	-0.07424766
202	0x3da98198	0.08276671
203	0xbdbf194c	-0.09330997
204	0xbe224026	-0.15844783
205	0xbda34428	-0.07971984
206	0x3d75d510	0.060017645
207	0xbc56f4c0	-0.013119876
208	0x3e218d86	0.15776643
209	0x3e25288a	0.16128746
210	0x3e5bb88c	0.21457118
211	0x3e5829b4	0.21109658
212	0xbda1ba08	-0.07896811
213	0x3ce9f770	0.02856037
214	0x3e7e8524	0.24855477
215	0xbe43386a	-0.19064489
216	0x3d6f9ef0	0.058501184
217	0xbe77b3c6	-0.24189672
218	0x3bf6dcc0	0.0075336397
219	0xbd1bc8b0	-0.038033187
220	0x3e08ea42	0.13370612
221	0xbe637544	-0.22212702
222	0x3e0cf9ba	0.13767138
223	0xbe7c2ec6	-0.24627218
224	0xbd91cf44	-0.07119611
225	0xbd844d24	-0.06460026
226	0xbc4c4d60	-0.0124696195
227	0xbdc2eee8	-0.09518224
228	0xbe07dfe0	-0.13268995
229	0x3dc65c3c	0.09685561
230	0xbe7cbf5a	-0.2468237
231	0x3e2ec0b6	0.17065701
232	0xbe1ebb74	-0.15501195
233	0xbe568972	-0.20950869
234	0xbc133ae0	-0.008986205
235	0x3d378c68	0.044811636
236	0xbe2ad186	-0.1668149
237	0xbe14432c	-0.14478749
238	0xbe6afe00	-0.22948456
239	0x3d626170	0.055268705
240	0x3e20d6dc	0.15706962
241	0x3e0956ca	0.13412014
242	0x3e6cde82	0.23131755
243	0x3de7c1f4	0.113162905
244	0xbe00b654	-0.12569553
245	0x3e0baea0	0.13640833
246	0x3dcdf0c0	0.10055685
247	0x3d89ec0c	0.067344755
248	0xbe147a66	-0.14499816
249	0x3e44e578	0.1922816
250	0xbd9e9810	-0.07743847
251	0xbbe9fc00	-0.0071406364
252	0x3e283716	0.16427264
253	0xbe40b1fe	-0.18817899
254	0xbe21193e	-0.15732285
255	0xbc5b38e0	-0.013380259

encoder.2.bias f4 [32]
0	0xbe1d2444	-0.15345865
1	0x3e07e34c	0.132703
2	0x3d8c6724	0.0685561
3	0xbbace540	-0.005276352
4	0xbe61c690	-0.22048402
5	0xbdf4d4d0	-0.11954653
6	0x3d703828	0.058647305
7	0xbe778d80	-0.24175072
8	0xbda6827c	-0.08130357
9	0xbe5100ee	-0.20410511
10	0x3d4f75a0	0.050649285
11	0x3c88dae0	0.01670593
12	0xbe241ee2	-0.16027406
13	0xbda67e0c	-0.0812951
14	0x3e6dd1a4	0.23224503
15	0xbe6d27e0	-0.23159742
16	0xbd2ef3e8	-0.042713076
17	0xbda005ac	-0.07813582
18	0xbe02bc7a	-0.1276721
19	0xbe74ff7c	-0.23925585
20	0xbe70db48	-0.23521149
21	0xbdca98b4	-0.09892407
22	0xbe7de6b8	-0.24795043
23	0xbce70840	-0.028202176
24	0xbe368616	-0.17824587
25	0x3cfa6840	0.030567288
26	0xba2dbe00	-0.00066277385
27	0xbe07dd28	-0.13267958
28	0x3da8bad8	0.082387626
29	0xbe425c1e	-0.18980452
30	0x3c14f360	0.009091228
31	0x3e106f5e	0.14104983

encoder.4.weight f4 [64, 32]
0	0x3d6e0786	0.058112644
1	0xbded4462	-0.115853086
2	0xbe176568	-0.14784777
3	0x3e0bc529	0.1364943
4	0x3d63e7ef	0.05564111
5	0x3def2bc7	0.11678272
6	0x3c8402c1	0.016114594
7	0x3d549dc4	0.05190827
8	0xbd53f40f	-0.051746424
9	0xbde805a2	-0.113291994
10	0xbe313a6e	-0.17307445
11	0xbd5fd17b	-0.054643136
12	0xbcc7fc6e	-0.02441236
13	0x3e2b40b5	0.16723903
14	0xbd95f36c	-0.0732182
15	0xbdc7dcd2	-0.09758915
16	0x3e2a1ea1	0.16613247
17	0xbe0b97f0	-0.13632178
18	0xbdd04004	-0.1016846
19	0xbe1b0c81	-0.15141489
20	0xbe0acb03	-0.13554005
21	0xbe2f8c5a	-0.17143384
22	0xbde22bed	-0.110435344
23	0x3e1cb8b4	0.15304834
24	0x3d2bd86d	0.041954447
25	0x3d1c345e	0.03813588
26	0x3dd71bcc	0.10503349
27	0xbe1c942e	-0.15290901
28	0xbe0457a8	-0.12924063
29	0xbdaa4dac	-0.08315596
30	0x3c860516	0.016359847
31	0x3e2990ec	0.1655919
32	0x3cef2f12	0.02919725
33	0x3e0079d3	0.12546472
34	0xbd5ed48f	-0.05440193
35	0xbe20b5a6	-0.15694293
36	0x3e343a2b	0.17600314
37	0x3d722c2f	0.059124168
38	0xbb9df4f6	-0.0048204614
39	0x3d003479	0.03130004
40	0x3cf2cf5f	0.029639898
41	0xbd8b020e	-0.06787501
42	0xbdab0613	-0.08350768
43	0xbcfd4354	-0.030915894
44	0xbd8f01f5	-0.06982795
45	0xbdfec146	-0.12439208
46	0x3d411893	0.047142576
47	0xbe159a9b	-0.14609759
48	0xbc8695de	-0.016428884
49	0xbdcc8d6f	-0.09987914
50	0xbd681969	-0.056664858
51	0xbd991039	-0.07473797
52	0x3c8e3175	0.017357567
53	0xbced8da8	-0.028998211
54	0x3e302a14	0.17203552
55	0xbe2623ff	-0.16224669
56	0xbdf32568	-0.11872369
57	0xbd3a69e8	-0.045511156
58	0x3c30ae16	0.010783693
59	0x3dcfb0d9	0.10141153
60	0x3c61004c	0.013732981
61	0x3d86fcb5	0.06591169
62	0x3d812b7f	0.06307124
63	0xbd6f1ead	-0.058378864
64	0x3e0b8b3c	0.13627332
65	0xbc72f6ca	-0.014829347
66	0x3c27ec61	0.010249228
67	0x3c392d25	0.011302267
68	0x3cf1fb53	0.029538786
69	0x3cabbcfb	0.020964136
70	0x3d1d004d	0.038330365
71	0xbdfb428e	-0.12268554
72	0xbdc9d4bf	-0.09855031
73	0x3d9d9cb2	0.07695903
74	0x3cb96d0d	0.022635007
75	0xbdd838f8	-0.10557741
76	0xbd912dc4	-0.07088807
77	0xbe28beec	-0.16479081
78	0xbd88b4db	-0.066751204
79	0xbc7632fd	-0.015026805
80	0x3d1dc037	0.03851339
81	0xbda5dd46	-0.08098845
82	0xbc64eb6b	-0.013972144
83	0xbd2c3597	-0.042043295
84	0xbe045f10	-0.12926888
85	0xbbbadb3e	-0.0057024052
86	0xbd6910e5	-0.056900878
87	0xbe0ded5f	-0.13860081
88	0xbe050151	-0.12988783
89	0x3dcd7c5b	0.100334845
90	0x3e1929db	0.14957373
91	0xbdeac7e0	-0.114639044
92	0xbd3734a5	-0.04472794
93	0xbd173db3	-0.036924075
94	0x3d92830e	0.07153903
95	0xbd6eba93	-0.0582834
96	0xbc2f010c	-0.010681402
97	0xbd532bdc	-0.0515555
98	0x3dc51798	0.09623641
99	0xbd9df222	-0.07712199
100	0x3d06b79c	0.032889947
101	0x3a1c28fd	0.00059570355
102	0xbba3c64e	-0.004998005
103	0x3d1bd1e7	0.038041975
104	0xbd7e997a	-0.062158085
105	0xbd6ae74c	-0.05734949
106	0xbd21ea77	-0.039530244
107	0xbd711447	-0.05885723
108	0x3de07261	0.10959316
109	0xbddc499f	-0.107562296
110	0xbe0d95d4	-0.13826686
111	0xbd9d000c	-0.076660246
112	0xbde74111	-0.11291707
113	0x3c7cd7c2	0.0154323
114	0x3c5368fb	0.012903447
115	0xbc4250df	-0.0118601015
116	0xbd0a47c7	-0.03375986
117	0xbd171fa0	-0.036895394
118	0xbdde0b2d	-0.10841975
119	0xbe033543	-0.12813286
120	0x3cf5e43c	0.030016057
121	0xbd86b7d7	-0.065780334
122	0x3d27ed43	0.040997755
123	0xbda6eb67	-0.08150368
124	0xbc651550	-0.013982132
125	0x3d25109d	0.040299047
126	0xbbd1e757	-0.0064057517
127	0x3de4011d	0.11133025
128	0x3da2eaf2	0.079549685
129	0x3d87d84c	0.06633052
130	0xbba8af03	-0.005147816
131	0x3d0a0eb3	0.033705425
132	0x3e1439dd	0.14475198
133	0xbd0792b3	-0.033098888
134	0xbd661b7f	-0.056178566
135	0x3e164240	0.1467371
136	0x3dbedff3	0.09320059
137	0xbd6ea3c5	-0.05826165
138	0x3dfb571d	0.12272475
139	0x3e21fe0a	0.15819564
140	0xbaf6ab77	-0.0018819411
141	0xbdba4849	-0.090958185
142	0xbd5341ef	-0.05157655
143	0xbdee98d8	-0.116502464
144	0x3e1c0e42	0.15239814
145	0x3ddd139c	0.10794756
146	0xbd9e2514	-0.07721916
147	0xbd43de99	-0.047819708
148	0xbccb6c29	-0.024831848
149	0x3a33778e	0.0006846123
150	0xbe2cc91c	-0.16873592
151	0xbe332ebb	-0.17498295
152	0xbdc96ffe	-0.09835814
153	0xbd86b9f0	-0.065784335
154	0xbd25bd7a	-0.040463902
155	0xbe0f66e9	-0.14004101
156	0x3dac454d	0.084116556
157	0xbd7f8190	-0.06237942
158	0xbda5b48d	-0.08091078
159	0xbd01fd10	-0.03173548
160	0x3db15cbd	0.086602665
161	0x3cfda324	0.03096158
162	0xbdf122be	-0.11774205
163	0x3e3409a4	0.17581803
164	0xbe15838d	-0.14600964
165	0xbe2a39ae	-0.16623566
166	0xbc8d3834	-0.017238714
167	0xbdc13731	-0.09434355
168	0x3d888a4a	0.066670015
169	0x3c6f873d	0.014619646
170	0xbe240045	-0.16015728
171	0x3aeed83b	0.0018222401
172	0x3c5a30a9	0.013317266
173	0xbd97b0d0	-0.07406771
174	0x3d345257	0.044023838
175	0x3da2d912	0.07951559
176	0x3cacfbc1	0.02111614
177	0x3e16c291	0.14722659
178	0xbdc40a2f	-0.09572255
179	0xbc292f87	-0.010326273
180	0xbe134678	-0.1438235
181	0xbe0c8551	-0.13722731
182	0x3e03a1f8	0.12854755
183	0x3e3286ad	0.17434187
184	0xbb1cec81	-0.0023944678
185	0x3db8f233	0.09030571
186	0xbcd21669	-0.025645452
187	0xbe185223	-0.14875083
188	0x3db428c9	0.08796842
189	0xbdb81f38	-0.089903295
190	0xbd3aa263	-0.04556502
191	0x3e070ac4	0.131877
192	0x3dcf186f	0.10112082
193	0xbce463eb	-0.027879676
194	0xbdb68a3f	-0.08913087
195	0xbd0c1004	-0.03419496
196	0x3dcc405c	0.09973213
197	0x3e2bd14d	0.1677906
198	0xbcfeba94	-0.031094827
199	0x3e0fa65f	0.1402831
200	0xbddec2fd	-0.10877035
201	0x3cf812c3	0.030282384
202	0xbcfbdf85	-0.03074623
203	0xbe31b49f	-0.17354058
204	0x3e01cdb7	0.1267613
205	0x3e2b150b	0.16707246
206	0x3da07fe3	0.078368925
207	0x3d79d574	0.06099458
208	0xbdd246e9	-0.10267431
209	0xba06b703	-0.0005138965
210	0xbdaf7388	-0.08566958
211	0xbdd653e5	-0.1046522
212	0xbe20e5d5	-0.15712674
213	0xbdeb693e	-0.11494683
214	0x3e2bf368	0.16792071
215	0x3db125d7	0.086497955
216	0x3e0b289d	0.13589711
217	0x3b1ba139	0.002374722
218	0xbe1cf736	-0.15328678
219	0xbe0900ec	-0.13379258
220	0xbdf5ff56	-0.12011592
221	0x3d00702d	0.03135698
222	0x3c174b99	0.0092343325
223	0x3e0b0052	0.13574341
224	0xbd2a4730	-0.041571796
225	0x3dade3c6	0.0849071
226	0xbdedb604	-0.11606982
227	0xbd95d28e	-0.07315551
228	0xbe2b4f31	-0.16729428
229	0xbd7ca31a	-0.061678983
230	0xbe1fe79f	-0.156157
231	0x3cf8b30e	0.030358817
232	0xbd71012a	-0.058839
233	0xbdee1552	-0.1162516
234	0x3d81dd0b	0.06340989
235	0x3d438aac	0.04773967
236	0x3db44936	0.088030264
237	0xbe054055	-0.13012822
238	0x3cf4dd75	0.029890755
239	0xbdd210b5	-0.10257093
240	0x3d7cf443	0.061756384
241	0xbe12a840	-0.14321995
242	0xbdd925d7	-0.106029205
243	0x3d2764a9	0.04086748
244	0x3d9281cb	0.07153662
245	0x3e08df68	0.13366473
246	0x3e125e55	0.14293797
247	0x3e1d64ae	0.15370438
248	0xbdaecc59	-0.0853507
249	0x3e0c175e	0.13680789
250	0xbcb0def7	-0.021590693
251	0x3d1e2089	0.038605247
252	0x3e26089c	0.16214222
253	0xbe2b8020	-0.16748095
254	0x3df3376a	0.11875804
255	0xbe25b49e	-0.16182181

encoder.4.bias f4 [64]
0	0xbca336da	-0.019923616
1	0xbc9f1417	-0.01941876
2	0x3d821cbd	0.06353138
3	0xbd3f3a70	-0.04668659
4	0x3e205249	0.1565639
5	0x3db89660	0.09013057
6	0x3e173f8c	0.14770335
7	0xbe11a5ac	-0.14223355
8	0x3df5424f	0.11975538
9	0x3cccba72	0.024991248
10	0xbb89f9ed	-0.0042107017
11	0xbd6f597f	-0.05843496
12	0x3e2b3050	0.16717649
13	0x3ce2875f	0.02765244
14	0x3e1a2138	0.15051734
15	0x3d23f176	0.040025197
16	0x3e0d8acc	0.13822478
17	0x3d08824d	0.03332739
18	0x3e33d119	0.17560233
19	0x3d84d9b4	0.06486836
20	0x3e0b3030	0.13592601
21	0xbe20316e	-0.15643856
22	0xbd8c0234	-0.06836358
23	0xbcc3e885	-0.023914585
24	0xbda3e475	-0.08002559
25	0x3db3294f	0.08748113
26	0xbe00399f	-0.1252198
27	0x3c3582d0	0.011078551
28	0x3dd08613	0.10181823
29	0x3dd77d9f	0.10522007
30	0x3d246aaa	0.040140785
31	0xbdbf3d52	-0.09337868
32	0xbd2ae9e9	-0.04172698
33	0xbe15f457	-0.1464399
34	0x3e32374d	0.17403908
35	0x3df213f7	0.11820214
36	0x3d535929	0.0515987
37	0x3e118039	0.1420907
38	0xbd38be65	-0.04510345
39	0xbe23a738	-0.15981758
40	0x3b90e9d4	0.0044224057
41	0x3e0d18fa	0.13779059
42	0x3e2b38fc	0.16720957
43	0x3d11f48f	0.03563362
44	0x3dd68137	0.104738645
45	0xbde4d547	-0.11173492
46	0xbd02e811	-0.031959597
47	0x3df3a16a	0.11896022
48	0x3c8823ec	0.016618691
49	0xbe038520	-0.12843752
50	0xbd8117e5	-0.06303386
51	0x3e0684f3	0.13136654
52	0xbd7be61b	-0.061498743
53	0x3e1f1776	0.15536293
54	0xbe1d6d5d	-0.1537375
55	0xbd39489d	-0.045235265
56	0xbd8aa83b	-0.06770369
57	0x3dd618be	0.10453938
58	0x3d1dec3c	0.03855537
59	0xbd570ad9	-0.05250058
60	0xbcbead92	-0.023276124
61	0x3d15debb	0.036589365
62	0x3d8dc751	0.06922782
63	0x3ddd2de2	0.10799767

encoder.7.weight f4 [32, 64]
0	0x3db76714	0.089552075
1	0xbc627f90	-0.013824359
2	0xbd373aa4	-0.04473366
3	0x3cbdc0b0	0.02316317
4	0x3d2f6bec	0.04282753
5	0x3c836d28	0.01604326
6	0xbd9586ca	-0.073010996
7	0xbdcc5da2	-0.099787965
8	0xbded3416	-0.115822
9	0x3d893af2	0.06700696
10	0x3c6d3280	0.014477372
11	0x3debb108	0.115083754
12	0x3cea09f8	0.028569207
13	0x3d5bb124	0.05363573
14	0xbda5db28	-0.08098441
15	0x3db17d82	0.08666517
16	0x3d81fa28	0.06346542
17	0x3def4e5a	0.11684866
18	0xbd0c34b0	-0.034229934
19	0xbd837e52	-0.06420578
20	0xbde1473a	-0.109999135
21	0xbcc159c8	-0.023602381
22	0x3d8c33b6	0.068458006
23	0x3debd5c6	0.115153834
24	0xbdaa76ae	-0.083234176
25	0xbd9087c6	-0.07057147
26	0xbdd896b8	-0.10575622
27	0xbde5955c	-0.11210129
28	0xbb36e2c0	-0.002790615
29	0x3df16bea	0.11788161
30	0x3daaf6ec	0.08347878
31	0xbdc49002	-0.0959778
32	0x3d1471d8	0.036241382
33	0x3d360818	0.044441313
34	0x3da49eb6	0.08038084
35	0x3d4b45f4	0.04962726
36	0x3c74e380	0.014946818
37	0xbda9fec4	-0.08300546
38	0xbdbde500	-0.09272194
39	0xbd74ee38	-0.059797496
40	0x3df7e7b0	0.12104738
41	0xbca315d0	-0.019907862
42	0x3d4ddfc4	0.050262228
43	0xbbf498e0	-0.007464513
44	0xbdfdb672	-0.12388314
45	0xbd4a5f78	-0.049407452
46	0x3dbb6094	0.0914928
47	0xbcab9748	-0.02094616
48	0xbdd6b8bc	-0.10484454
49	0x3de1408c	0.109986395
50	0x3ca2e668	0.019885257
51	0xbd14b850	-0.036308587
52	0xbdaea0c8	-0.0852676
53	0x3d4462cc	0.047945783
54	0x3dab4be8	0.08364087
55	0x3cdfe2f0	0.027329892
56	0xbda89842	-0.08232166
57	0xbdd6c646	-0.104870364
58	0x3dc8fcaa	0.09813817
59	0x3c7c6080	0.015403867
60	0xbdfee2d8	-0.12445611
61	0xbdecca7e	-0.1156206
62	0xbb0fa5c0	-0.0021918863
63	0x3ddb8c6a	0.10720141
64	0xbdbe8b10	-0.09303868
65	0x3ccf8ae0	0.025334775
66	0xbca5b938	-0.02022992
67	0x3df3bed2	0.119016305
68	0x3d82c7e6	0.06385784
69	0x3d53bd6c	0.05169432
70	0x3d923aa8	0.07140094
71	0xbd79ea70	-0.061014593
72	0xbdc34180	-0.095339775
73	0x3c2c02b0	0.010498688
74	0x3d820056	0.0634772
75	0xbdaa17d4	-0.08305326
76	0xbdcc3c36	-0.09972422
77	0xbdbbcfc4	-0.091704875
78	0xbd1784dc	-0.03699194
79	0xbcc041e8	-0.023468927
80	0xbc1a1100	-0.009403467
81	0x3de480f2	0.11157407
82	0x3bfebbc0	0.0077738464
83	0x3c6164b0	0.013756916
84	0x3b9b3f60	0.0047377795
85	0x3de9c9fa	0.11415477
86	0x3b96f9c0	0.0046074092
87	0x3c216cc0	0.009852588
88	0xbdb4c886	-0.08827309
89	0x3deeb094	0.11654773
90	0xbdd546b6	-0.10413878
91	0x3c65b860	0.014021009
92	0x3d14192c	0.03615682
93	0xbd9ba21e	-0.07599281
94	0x3db69df4	0.08916846
95	0x3dfb8d42	0.12282802
96	0x3d356720	0.0442878
97	0xbdbabdfa	-0.091182664
98	0x3c999c98	0.018751428
99	0xbddc4284	-0.10754874
100	0xbdec3540	-0.11533594
101	0xbdc19428	-0.09452087
102	0x3ca56b50	0.020192772
103	0x3dfae634	0.12250939
104	0x3df23d70	0.118281245
105	0x3d83d490	0.064370275
106	0xbce25578	-0.027628645
107	0x3d5285c8	0.051397115
108	0x3dbd972a	0.09257348
109	0x3d3805e4	0.044927493
110	0x3da98c68	0.082787335
111	0xbd0f6178	-0.035005063
112	0xbde23bf4	-0.110465914
113	0x3d55acac	0.052166626
114	0xbd86fdba	-0.06591363
115	0x3c86c540	0.016451478
116	0x3d84dc86	0.06487374
117	0x3d6eefe4	0.058334246
118	0xbc0548e0	-0.008135051
119	0x3d6dc7f4	0.05805202
120	0xbd550528	-0.05200687
121	0xbdfbfe4e	-0.12304364
122	0xbdde92d4	-0.10867849
123	0xbd8d2a4c	-0.06892833
124	0xbdc671aa	-0.096896484
125	0xbd8f5ac6	-0.069997355
126	0xbd21f5b8	-0.039540976
127	0xbb15ac80	-0.0022838414
128	0x3d8aa52e	0.06769787
129	0xbdfc4322	-0.12317492
130	0x3cd4a658	0.025958225
131	0xbd46937c	-0.048480496
132	0x3da85c30	0.08220708
133	0xbd336ddc	-0.043805942
134	0x3cd12788	0.025531545
135	0x3baf9680	0.005358517
136	0x3d839058	0.06424016
137	0x3d213d44	0.039365068
138	0xbd99a802	-0.07502748
139	0x3df617b2	0.12016238
140	0x3c8c9438	0.01716052
141	0x3da78c78	0.08181089
142	0x3bd39ca0	0.00645788
143	0x3ddaa570	0.10676086
144	0xbd975a22	-0.07390238
145	0xbcbfc680	-0.023410082
146	0x3df21c40	0.118217945
147	0xbdd1a050	-0.10235655
148	0xbcf64958	-0.03006427
149	0xbd6c79a0	-0.05773318
150	0x3dd48014	0.103759915
151	0xbd0af014	-0.033920363
152	0xbc2f8c10	-0.010714546
153	0xbdae6d36	-0.08516924
154	0xbddde226	-0.1083415
155	0x3d9f853c	0.07789084
156	0xbd9cb27a	-0.07651229
157	0x3d4bee44	0.049787775
158	0x3c8db0a8	0.01729615
159	0x3d85183e	0.064987645
160	0x3dc97556	0.09836833
161	0x3d8abba2	0.06774069
162	0xbd976e24	-0.073940545
163	0xbc70e3e0	-0.014702767
164	0xbda133c6	-0.07871203
165	0xbcd4d8b8	-0.025982246
166	0xbc8ede48	-0.017439976
167	0xbd2babb8	-0.04191181
168	0x3c9f79a8	0.01946719
169	0x3d2508a0	0.04029143
170	0x3ce7df68	0.02830477
171	0xbd9e9c70	-0.07744682
172	0xbd63aa08	-0.055582076
173	0xbd8194e0	-0.06327224
174	0xbd1b15dc	-0.037862644
175	0x3db843b4	0.08997288
176	0x3d89ad4a	0.067225054
177	0xbd8a406e	-0.0675057
178	0xbd51d938	-0.051232547
179	0xbd3ecfe8	-0.046584994
180	0xbdecdb2e	-0.11565243
181	0x3d153c20	0.036434293
182	0xbd10f0cc	-0.03538589
183	0x3c14b6d0	0.009076789
184	0x3dfbaab0	0.122884154
185	0xbd2605c4	-0.040532842
186	0xbdc6feee	-0.09716593
187	0x3d2ab484	0.04167606
188	0x3de366fe	0.111036286
189	0x3d0ae270	0.033907354
190	0xbd5c5954	-0.053796127
191	0x3afb0900	0.0019152462
192	0xbc660e70	-0.014041528
193	0x3c9d88f8	0.01923035
194	0x3c0ab380	0.008465648
195	0x3dc7c188	0.0975371
196	0x3d38df10	0.045134604
197	0x3dd02eda	0.10165186
198	0xbd6bca8c	-0.05756621
199	0x3c80aa98	0.015706345
200	0xbc491180	-0.012272239
201	0xbd67bfac	-0.056579277
202	0xbd259174	-0.040421918
203	0x3d7a34bc	0.061085448
204	0x3cd4cb78	0.025975928
205	0xbbf4ce20	-0.007470861
206	0x3dc868b0	0.097855926
207	0xbcab7e08	-0.02093412
208	0xbda9abe8	-0.08284742
209	0x3dd28fd0	0.10281336
210	0xbd895eee	-0.067075595
211	0xbd81ceea	-0.06338294
212	0x3d3b8ad4	0.045786694
213	0x3dfdf85a	0.12400885
214	0xbdcbc40e	-0.09949504
215	0x3d748ef0	0.05970663
216	0x3d3301fc	0.043703064
217	0x3d186ce8	0.037213236
218	0x3d8480b8	0.06469864
219	0xbdaaeeee	-0.083463535
220	0x3d0c9948	0.034325868
221	0xbda7a044	-0.08184865
222	0xbda2311e	-0.079195246
223	0xbdbc56b2	-0.09196223
224	0x3c590bc0	0.01324743
225	0x3daa4420	0.08313775
226	0xbd4065e0	-0.046972156
227	0xbde61cf0	-0.11235988
228	0x3cb7f860	0.022457302
229	0xbdf718a4	-0.12065247
230	0xbdcd4e2c	-0.10024676
231	0xbdec3ef2	-0.11535443
232	0xbca3d488	-0.019998804
233	0xbd8a970c	-0.06767091
234	0x3d5179b0	0.05114144
235	0x3db522be	0.08844517
236	0xbde72b12	-0.11287512
237	0x3d0ae208	0.033906966
238	0xbd2aa920	-0.041665196
239	0xbd0e26b0	-0.034704864
240	0x3d087500	0.033314705
241	0x3d2010fc	0.039078698
242	0x3d9d1992	0.07670893
243	0x3d984aea	0.07436164
244	0x3d93b620	0.07212472
245	0xbd914a12	-0.07094206
246	0x3da82dc6	0.082118556
247	0xbd3d436c	-0.046206877
248	0xbd300b60	-0.042979598
249	0x3ce172a0	0.027520478
250	0x3ddd9038	0.10818523
251	0x3ce5e990	0.028065473
252	0x3c93def0	0.01805064
253	0xbd6ae194	-0.057344034
254	0xbcf744d8	-0.030184194
255	0xbcc19310	-0.023629695

encoder.7.bias f4 [32]
0	0xbd94996c	-0.072558254
1	0xbd67eee4	-0.05662431
2	0x3d4e458c	0.050359294
3	0xbdb5ba22	-0.08873393
4	0x3d7f9494	0.062397555
5	0x3cdba0c8	0.026810065
6	0xbd0cb0f0	-0.03434843
7	0x3df27c72	0.11840142
8	0x3d355c50	0.04427749
9	0xbcd44f38	-0.02591668
10	0x3dfaae72	0.12240304
11	0x3dd14dba	0.10219903
12	0x3db588ae	0.0886396
13	0x3d539600	0.051656723
14	0x3d40ab74	0.04703851
15	0xbdcfcb08	-0.10146147
16	0x3d951a92	0.072804585
17	0x3dbb81d6	0.091556236
18	0xbde1c816	-0.110244915
19	0x3cc774b8	0.024347648
20	0xbd2243a8	-0.039615303
21	0x3d4a2bb4	0.049358085
22	0xbd489d00	-0.048977852
23	0xbc861d80	-0.016371489
24	0xbd3304e0	-0.04370582
25	0x3b56a800	0.0032753944
26	0xbc448690	-0.011994973
27	0x3db32aaa	0.08748372
28	0xbda04196	-0.078250095
29	0x3c81ef70	0.015861243
30	0x3d706944	0.05869414
31	0x3c8ad710	0.016948253

encoder_flow.0.weight f4 [16, 32]
0	0xbe2cacf8	-0.16862857
1	0xbdb3662d	-0.08759723
2	0x3dde4071	0.10852135
3	0xbb9c7eba	-0.004775849
4	0xbd92b580	-0.07163525
5	0x3e270b0e	0.16312811
6	0xbd968122	-0.07348849
7	0xbd32b8f2	-0.04363341
8	0x3da04d02	0.07827188
9	0xbc66d396	-0.014088532
10	0xbe20f29d	-0.1571755
11	0x3e1db944	0.15402704
12	0x3e207f8f	0.1567366
13	0xbc0b939c	-0.00851908
14	0x3ddcd5c8	0.10782963
15	0xbcca20bf	-0.024673818
16	0xbe155c43	-0.14585976
17	0x3d52eeb7	0.051497187
18	0x3dddccf6	0.10830109
19	0xbe090df3	-0.13384227
20	0x3cc86a85	0.024464855
21	0xbe1a019c	-0.15039676
22	0xbc4b3fec	-0.012405377
23	0x3cc73145	0.024315486
24	0x3dd1afb3	0.1023859
25	0xbd8d2df9	-0.06893534
26	0x3e16df14	0.14733535
27	0x3c951d78	0.018202528
28	0x3c2b1ce9	0.010443904
29	0xbe0e0359	-0.13868465
30	0x3df18fd6	0.11795013
31	0xbd15b629	-0.036550675
32	0xbe15b8ed	-0.14621325
33	0xbe2c9093	-0.16852026
34	0x3df690d3	0.12039342
35	0xbd851d28	-0.06499702
36	0x3ca9f4f1	0.02074668
37	0x3e031897	0.12802349
38	0xbc2d3ecc	-0.010574054
39	0xbe2370af	-0.15960954
40	0xbdcf63ff	-0.101264946
41	0xbddb5f6a	-0.10711558
42	0xbdc35010	-0.09536755
43	0xbc814039	-0.015777694
44	0x3dc5b77f	0.0965414
45	0xbdac2016	-0.084045574
46	0x3dc62812	0.096756116
47	0x3dd61910	0.10453999
48	0xbddaca8c	-0.10683164
49	0x3d5d44f4	0.054020837
50	0xbcb826ad	-0.02247938
51	0xbe2d592e	-0.1692855
52	0x3df6205d	0.120178916
53	0x3d9ae363	0.07562902
54	0xbd3344d8	-0.043766826
55	0xbcfb4c4f	-0.030676035
56	0x3e0ecd32	0.13945463
57	0xbd8c9bab	-0.06865629
58	0xbc93a8a5	-0.018024752
59	0x3e15c350	0.14625287
60	0xbd4178a1	-0.04723418
61	0xbe0b2b0e	-0.13590643
62	0x3dee93c3	0.11649277
63	0x3e22199e	0.15830085
64	0x3e2115e7	0.15731011
65	0xbe161a94	-0.14658576
66	0xbdffcf6c	-0.124907345
67	0x3e2a4f1d	0.16631742
68	0xbd2c8688	-0.042120486
69	0x3e2c04d0	0.16798711
70	0x3dbe12a5	0.092809
71	0x3e1e86f8	0.15481174
72	0x3debe7f8	0.11518854
73	0xbd651d29	-0.055936012
74	0x3e02bf6c	0.12768334
75	0xbd41e0d2	-0.047333546
76	0x3e0c1b55	0.13682301
77	0xbd0822a4	-0.03323616
78	0xbdcbe52a	-0.09955819
79	0xbe280604	-0.16408545
80	0x3cf99a52	0.030469093
81	0xbdb57d34	-0.08861771
82	0xbd95d726	-0.07316427
83	0x3dabcd36	0.0838875
84	0xbd032ed2	-0.032027073
85	0x3d81142c	0.063026756
86	0x3d0e4832	0.03473682
87	0xbd36c80a	-0.044624366
88	0x3dfc73b1	0.12326754
89	0x3de8fd98	0.11376494
90	0xbc4963f3	-0.012291896
91	0x3a84ade0	0.001012262
92	0x3e3339f4	0.17502576
93	0xbda9be3e	-0.08288239
94	0xbd9ef52d	-0.07761607
95	0x3c367d7c	0.011138316
96	0x3e158297	0.14600597
97	0xbd54e206	-0.051973365
98	0xbe2c1eab	-0.16808574
99	0xbd68c405	-0.056827564
100	0x3de167ec	0.1100615
101	0x3cb39689	0.021922367
102	0x3ca22100	0.019791126
103	0x3e251098	0.16119611
104	0xbc473be0	-0.012160271
105	0xbdb51d03	-0.08843424
106	0x3d843be6	0.06456737
107	0xbcd18e4a	-0.025580544
108	0x3e288611	0.16457392
109	0x3dcc2b8e	0.09969245
110	0x3e0c98a3	0.13730101
111	0xbe21ec8d	-0.15812893
112	0x3da51623	0.08060863
113	0x3dda36ea	0.10655005
114	0x3dec8484	0.11548713
115	0xbd1e2ea8	-0.038618714
116	0xbd93a719	-0.07209606
117	0xbd060dba	-0.032727934
118	0x3db81160	0.08987689
119	0x3d128459	0.035770748
120	0x3a8970ed	0.0010485925
121	0xbdbfdd87	-0.09368425
122	0xbd14d09d	-0.03633176
123	0xbd22980a	-0.039695777
124	0x3da7a247	0.08185249
125	0xbdf0ee18	-0.11764163
126	0x3a7731d0	0.0009429725
127	0xbdb57b83	-0.088614486
128	0x3e1d7dc1	0.15380003
129	0x3e30523a	0.17218867
130	0x3e00c7b0	0.12576175
131	0x3dc2db50	0.09514487
132	0x3de23370	0.11044967
133	0x3de4de1e	0.11175178
134	0x3dbfcdc5	0.09365419
135	0xbd828d0c	-0.06374559
136	0xbd66d205	-0.056352634
137	0x3e09f940	0.13473988
138	0x3c94283c	0.018085591
139	0xbd8b0c7c	-0.067894906
140	0x3d81f146	0.063448474
141	0xbdeabcdc	-0.11461803
142	0x3e1f07ba	0.15530291
143	0x3d27176e	0.04079383
144	0x3e093d98	0.13402402
145	0xbd864d96	-0.06557767
146	0x3dd3ed98	0.10348052
147	0xbe019202	-0.12653354
148	0x3e2f5547	0.17122374
149	0x3d46e185	0.048554916
150	0x3cdf8e4e	0.027289536
151	0x3d25aca4	0.040447846
152	0x3da80ac6	0.0820518
153	0x3e0e5009	0.13897718
154	0x3e337bd2	0.17527702
155	0x3d8b6285	0.068059005
156	0x3d8723c3	0.06598618
157	0xbb25be4c	-0.0025290428
158	0x3ce83d5c	0.02834957
159	0x3e28ebac	0.16496152
160	0x3d2998e8	0.04140559
161	0x3de83f9d	0.11340258
162	0x3e2ae879	0.16690244
163	0x3b4842a8	0.0030557308
164	0x3d00e63e	0.031469576
165	0xbdd6023f	-0.10449647
166	0xbc5a1570	-0.013310775
167	0x3e143611	0.1447375
168	0xbd701657	-0.058615055
169	0xbde5c806	-0.11219792
170	0xbdf20b5b	-0.11818572
171	0xbe22da2b	-0.15903537
172	0xbd02aef2	-0.031905122
173	0x3e03ff40	0.12890339
174	0x3d378345	0.044802923
175	0x3d8cf5e7	0.0688284
176	0x3cea6651	0.028613241
177	0xbe1f9fb2	-0.15588263
178	0x3dc19c27	0.09453612
179	0xbe2a0824	-0.16604668
180	0xbdcf4ddb	-0.101222716
181	0xbc863712	-0.016383681
182	0xbe0ce82a	-0.13760439
183	0xbd0db190	-0.034593165
184	0x3d82021a	0.06348057
185	0xbd53c1be	-0.05169844
186	0x3dfc3bb5	0.12316076
187	0xbdb425ae	-0.08796249
188	0x3dfcdb54	0.12346521
189	0x3e2796ee	0.16366169
190	0xbc89ab2c	-0.016805254
191	0xbc96407d	-0.018341297
192	0xbd98783d	-0.07444809
193	0xbd4e32bc	-0.050341353
194	0xbdd20236	-0.10254328
195	0x3e106237	0.14099966
196	0xbd815b9f	-0.063163035
197	0xbc4d3dd5	-0.012526949
198	0x3de6f248	0.1127668
199	0xbe29a79a	-0.16567841
200	0xbe235595	-0.15950616
201	0x3e2fa8f0	0.17154288
202	0xbd626405	-0.055271167
203	0x3dd54acc	0.10414657
204	0xbd056460	-0.03256643
205	0x3e30ae8b	0.17254083
206	0x3db7b861	0.08970714
207	0xbdda1976	-0.106493875
208	0xbdbd9a2f	-0.09257924
209	0xbdce04d4	-0.10059515
210	0x3ddd677b	0.10810753
211	0x3e34560a	0.17610946
212	0x3d7cbe75	0.06170507
213	0x3df51f49	0.11968858
214	0xbdeb14d2	-0.114785805
215	0x3da12293	0.07867923
216	0xbcb973c4	-0.02263821
217	0x3db18bbe	0.08669232
218	0xbe08d8ea	-0.13363996
219	0x3dde6ef4	0.108610064
220	0x3e030720	0.12795687
221	0xbe32ac91	-0.17448641
222	0xbe2b1a8d	-0.16709347
223	0x3d13648b	0.035984557
224	0x3e2ae29a	0.16688004
225	0x3d65597c	0.055993542
226	0x3e12219c	0.14270633
227	0xbe13c169	-0.14429249
228	0xbd967681	-0.073468216
229	0x3ddd86fb	0.10816761
230	0x3d9d81c8	0.076907694
231	0xbd87ccac	-0.06630835
232	0xbd31a384	-0.04336883
233	0x3d7a726e	0.061144285
234	0x3e0e96d0	0.13924718
235	0xbd7144f5	-0.058903653
236	0x3d9d6974	0.07686129
237	0xbdb90b94	-0.090354115
238	0x3d946d5b	0.072474204
239	0x3c809553	0.015696203
240	0xbd844ec5	-0.064603366
241	0xbb4b0ab6	-0.0030981726
242	0xbd1741a1	-0.036927823
243	0x3de142a8	0.10999042
244	0xbd9525e9	-0.072826214
245	0x3e10301e	0.14080855
246	0x3e0dd4b8	0.13850677
247	0x3d4839a4	0.048883095
248	0xbdd510a6	-0.10403566
249	0xbe34bdb4	-0.17650491
250	0x3dd82d0a	0.105554655
251	0xbd29b6ac	-0.041433975
252	0x3e1a18de	0.15048549
253	0x3d54f10c	0.051987693
254	0xbc4bf54b	-0.012448619
255	0xbc61f8c2	-0.013792219

encoder_flow.0.bias f4 [16]
0	0xbdd76dfc	-0.10519025
1	0xbd8be216	-0.06830232
2	0x3df26f15	0.118375935
3	0xbd878e53	-0.06618943
4	0xbdcf7c15	-0.10131089
5	0xbe0a7910	-0.13522744
6	0xbbb84208	-0.005623106
7	0x3e1e6d23	0.1547132
8	0xbdff8ebf	-0.124783985
9	0x3dee87e8	0.11647016
10	0x3db7205f	0.08941721
11	0xbe07c111	-0.13257243
12	0xbd622ba0	-0.055217385
13	0xbd5c5abf	-0.05379748
14	0x3ddecbad	0.10878692
15	0x3c5f26fb	0.0136201335

encoder_flow.2.weight f4 [32, 16]
0	0xbe05ee86	-0.1307927
1	0xbe3a75ee	-0.18209049
2	0x3d38f688	0.045156986
3	0x3e632e5c	0.22185653
4	0xbe53a6f8	-0.20669162
5	0xbb8b4e00	-0.0042512417
6	0x3e2d6144	0.16931635
7	0xbda8a2b8	-0.08234161
8	0xbd26ffc0	-0.040771246
9	0x3de2d21c	0.110752314
10	0xbe54cfc4	-0.20782381
11	0xbcb86820	-0.022510588
12	0x3e695e18	0.227898
13	0xbe10ee00	-0.1415329
14	0xbdaba68c	-0.08381376
15	0xbdc22a80	-0.094807625
16	0x3dd9eafc	0.10640523
17	0xbe10bcfe	-0.14134595
18	0xbe66df8a	-0.22546211
19	0x3dbef770	0.09324539
20	0x3e259772	0.16171053
21	0x3e7e7b2e	0.24851677
22	0x3d3be9b8	0.04587719
23	0x3e7663f8	0.24061573
24	0xbe6f7774	-0.23385412
25	0x3ddb9bdc	0.10723087
26	0xbe07dcea	-0.13267866
27	0xbe6c931a	-0.2310299
28	0xbdb1b4dc	-0.08677074
29	0xbdc71024	-0.097198755
30	0xbe7a5bc2	-0.24449065
31	0xbc282920	-0.010263711
32	0xbd911c84	-0.07085517
33	0x3e55c51a	0.2087597
34	0xbcd14640	-0.025546193
35	0x3dc459b8	0.09587425
36	0x3e74c37a	0.23902693
37	0x3e53ce38	0.20684135
38	0xbe26d2d4	-0.16291362
39	0xbd3b8248	-0.045778543
40	0x3c6f0300	0.014588118
41	0x3be973c0	0.007124394
42	0x3d7589b8	0.059945792
43	0xbe345c26	-0.17613277
44	0x3d0b56e0	0.034018397
45	0x3d0b08e0	0.03394401
46	0x3e227cc6	0.1586791
47	0xbe574e2c	-0.21025914
48	0x3e10705c	0.14105362
49	0x3e4f6d82	0.20256618
50	0xbe432b38	-0.19059455
51	0x3e24b706	0.16085443
52	0x3e7614cc	0.24031371
53	0x3cd493c0	0.025949359
54	0xbe0008d4	-0.12503368
55	0x3e2271f4	0.15863782
56	0x3e1b91ec	0.15192384
57	0x3d9aec08	0.07564551
58	0x3e13816e	0.14404842
59	0xbe7484c0	-0.23878765
60	0xbc8932a0	-0.016747773
61	0x3e7d81ce	0.24756548
62	0xbe3be7c6	-0.18350133
63	0x3e3670d6	0.17816481
64	0xbe050374	-0.12989599
65	0xbd4f7e20	-0.05065739
66	0xbade9900	-0.0016982853
67	0xbe14919a	-0.14508668
68	0xbe3b7350	-0.18305707
69	0x3d7ed380	0.06221342
70	0x3e41cf26	0.18926677
71	0xbdafbd6c	-0.08581051
72	0xbe1ba07a	-0.15197936
73	0x3e2bf46e	0.16792461
74	0xbdd70cb0	-0.10500467
75	0x3d99c9f0	0.0750922
76	0xbe10e598	-0.14150083
77	0x3d9027f4	0.070388705
78	0x3daae1ec	0.083438724
79	0xbe39eb34	-0.18156129
80	0xbe424c28	-0.18974364
81	0x3d763358	0.06010756
82	0x3e0f7720	0.14010286
83	0x3dc28e74	0.09499827
84	0x3d671c40	0.056423426
85	0x3d88a69c	0.06672403
86	0xbe648caa	-0.22319284
87	0x3e2632c0	0.16230297
88	0xbe6f482a	-0.23367372
89	0xbd310f70	-0.043227613
90	0x3db6f164	0.0893276
91	0xbe3c00f8	-0.18359745
92	0xbbce2bc0	-0.0062918365
93	0x3cf87250	0.030327946
94	0xbe6279ea	-0.22116819
95	0x3d36a3f0	0.044589937
96	0xbe030454	-0.1279462
97	0xbe28dcc8	-0.16490471
98	0x3d624230	0.055238903
99	0xbdb41a2c	-0.087940544
100	0x3e7d6596	0.24745783
101	0x3df816d4	0.12113729
102	0x3e697238	0.22797477
103	0x3e1b257c	0.15151018
104	0x3dce14e8	0.10062581
105	0xbe43202e	-0.19055244
106	0x3dfbb124	0.12289646
107	0xbe3367f8	-0.1752013
108	0x3e64ffde	0.2236323
109	0xbe02c23c	-0.12769407
110	0x3db146e8	0.086561024
111	0xbe694894	-0.22781593
112	0xbd3342a0	-0.04376471
113	0x3d224c50	0.03962356
114	0x3d927aac	0.07152304
115	0xbdc266c4	-0.09492257
116	0x3dc3315c	0.09530899
117	0xbe46c33a	-0.1941041
118	0x3e266f90	0.16253495
119	0x3e61376c	0.21993798
120	0x3e48b8e6	0.19601783
121	0x3e53c296	0.20679697
122	0x3e619d5e	0.22032687
123	0x3d0b8a30	0.034067333
124	0x3cc0ad30	0.023520082
125	0x3e02dcbc	0.12779516
126	0xbdf6fe74	-0.12060252
127	0x3d0fe3e0	0.035129428
128	0xbe4da338	-0.20081794
129	0x3d25ea88	0.04050687
130	0x3c9c0d70	0.019049376
131	0xbc852d70	-0.016257018
132	0xbe65bc3a	-0.22435084
133	0x3d6e76f8	0.058218926
134	0xbe2b965a	-0.16756573
135	0x3df61dc8	0.12017399
136	0xbda4639c	-0.080268115
137	0x3dbacf84	0.09121612
138	0x3dd9252c	0.10602793
139	0x3e598f9c	0.21246189
140	0x3e68e8ee	0.22745106
141	0xbe41b972	-0.18918398
142	0x3e05b84e	0.13058588
143	0x3e52bbbe	0.2057943
144	0xbd6f75b8	-0.058461875
145	0x3dfc9b38	0.12334293
146	0xbe3d14e6	-0.18465003
147	0xbdf3ed60	-0.1191051
148	0x3da70fd4	0.08157316
149	0x3de2e430	0.110786796
150	0x3c85ae40	0.01631844
151	0x3d32b800	0.043632507
152	0x3e1aa6ce	0.15102693
153	0xbe41fad4	-0.1894334
154	0xbc062840	-0.008188307
155	0x3e6d9558	0.23201501
156	0xbdf77374	-0.12082568
157	0x3e5e20f4	0.21692258
158	0x3e335dee	0.175163
159	0xbd78e910	-0.06076914
160	0x3dd0d8b8	0.10197586
161	0xbd5b72e0	-0.05357635
162	0x3e699a12	0.2281268
163	0x3d677e78	0.056517094
164	0xbdefff2c	-0.11718592
165	0xbd206b00	-0.039164543
166	0xbc3619c0	-0.011114538
167	0xbe062156	-0.13098654
168	0x3d3203e0	0.043460727
169	0xbe544f5e	-0.20733401
170	0x3e2124cc	0.15736693
171	0xbe2b7f4c	-0.16747779
172	0x3e78a36a	0.24281088
173	0xbde327cc	-0.11091575
174	0xbe22043c	-0.15821928
175	0x3da7189c	0.08158991
176	0x3e50700c	0.20355242
177	0x3e56af2e	0.20965263
178	0x3e7b1320	0.24519014
179	0x3e18a100	0.14905167
180	0x3e221118	0.15826833
181	0x3c999100	0.0187459
182	0xbe279380	-0.1636486
183	0xbd0e05d0	-0.034673512
184	0x3d18cf60	0.037307143
185	0xbd8635ac	-0.06553206
186	0x3df851b0	0.12124956
187	0xbe355974	-0.17709905
188	0x3e72ca00	0.2370987
189	0xbddea740	-0.10871744
190	0xbda30878	-0.079606
191	0x3dbf05d8	0.093272865
192	0xbe5d5982	-0.21616176
193	0xbe00ed24	-0.12590462
194	0xbe3c3614	-0.18380004
195	0xbdb33554	-0.08750406
196	0xbe075114	-0.13214523
197	0x3e2786e4	0.1636005
198	0x3d8c60f8	0.06854433
199	0x3dae95d0	0.08524668
200	0x3e0d8f4a	0.13824192
201	0x3ddfd178	0.10928625
202	0x3db08e1c	0.08620855
203	0xbe088882	-0.13333324
204	0x3e593b5e	0.21214053
205	0xbda522bc	-0.08063266
206	0x3dc21ab0	0.094777465
207	0xbe718fac	-0.23589963
208	0x3e5b0cca	0.21391597
209	0x3d47ba98	0.048761934
210	0x3d2961f0	0.041353166
211	0xbd7fcc60	-0.062450767
212	0xbe7462e0	-0.23865843
213	0x3c82aa40	0.015950322
214	0xbe3cbf3c	-0.18432325
215	0x3d8f646c	0.07001576
216	0xbdce4ff4	-0.100738436
217	0xbdb43c2c	-0.088005394
218	0x3d6af678	0.057363957
219	0x3d8f3cc0	0.06994009
220	0xbe6971b0	-0.22797275
221	0xbd46bef0	-0.048521936
222	0xbd1ec7c0	-0.038764715
223	0xbd938290	-0.07202637
224	0x3e6975bc	0.22798818
225	0xbdcb0fec	-0.09915146
226	0xbe4b7d24	-0.19871956
227	0x3e439ff8	0.19103992
228	0xbc6684a0	-0.014069706
229	0xbd1b7228	-0.037950665
230	0x3e038ee2	0.12847474
231	0xbcd326a0	-0.025775254
232	0x3d3fcaa8	0.046824127
233	0xbe503682	-0.20333293
234	0x3e0cf892	0.13766697
235	0xbd663680	-0.05620432
236	0x3d086198	0.033296198
237	0x3dcaba30	0.09898794
238	0xbe3485c0	-0.17629147
239	0xbe151b4c	-0.14561194
240	0xbce4c080	-0.027923822
241	0x3d60bd98	0.05486831
242	0x3d8b9cdc	0.06817028
243	0xbd412fe8	-0.047164828
244	0x3ca54930	0.0201765
245	0xbe36eb56	-0.17863211
246	0x3d86cbb4	0.06581822
247	0x3dfd7f88	0.1237784
248	0xbd8ea960	-0.069658995
249	0xbe67f368	-0.22651446
250	0xbe2c25b0	-0.16811252
251	0x3e33b43c	0.17549223
252	0x3e2c4c66	0.16826019
253	0x3e5fe634	0.2186516
254	0xbd1f3cd0	-0.038876355
255	0xbdc07d20	-0.09398866

encoder_flow.2.bias f4 [32]
0	0xbcb3d220	-0.021950781
1	0xbe185e56	-0.14879736
2	0xbe31e6ec	-0.17373246
3	0xbd904c6c	-0.07045826
4	0x3cf271c0	0.029595256
5	0xbe3a2c10	-0.18180871
6	0x3e0b12b0	0.13581347
7	0xbce6ed10	-0.028189212
8	0x3b018d80	0.0019768178
9	0xbda94c48	-0.082665026
10	0xbe459da2	-0.19298413
11	0xbdc01338	-0.09378666
12	0x3e7cddf4	0.24694043
13	0x3e0fb73c	0.14034742
14	0x3e4f3f72	0.20239046
15	0x3e0684a0	0.1313653
16	0xbde26dd8	-0.11056107
17	0xbe2417c8	-0.16024697
18	0x3e14d214	0.14533263
19	0xbe36b98e	-0.17844221
20	0xbe2dc3c2	-0.16969207
21	0x3dff60ac	0.124696106
22	0x3e4d9a06	0.20078287
23	0xbc60bca0	-0.013716847
24	0x3e355b86	0.17710695
25	0x3e6723e6	0.22572288
26	0x3dd4b4dc	0.10386059
27	0xbe45514c	-0.19269294
28	0xbe2c5640	-0.16829777
29	0x3e6e2846	0.2325755
30	0x3e3f96ea	0.18709913
31	0xbe666372	-0.22498873
