OL-DPF-tracking/logs/tracking_5_lr_0.002_type_dpf_label_ratio_1.0_num_iter_8_elbo_0.001_pl_0.01_rmse_0.0001/model_checkpoint.pth (torch, 179572 bytes, 226 tensors)

dyn_nf.flows.0.t1.network.0.weight f4 [5, 3]
-0.0036302886 0.057067804 0.060042303 -0.012510545 -0.07359935 -0.075485386 -0.01893018 0.04244103
0.046169445 0.011732265 -0.0560896 -0.07420882 -0.008570445 0.057244044 0.070332
00000000: 23ea 6dbb eebf 693d ebee 753d 07f9 4cbc
00000010: 42bb 96bd 1598 9abd 7713 9bbc a5d6 2d3d
00000020: 2c1c 3d3d b038 403c 35be 65bd cbfa 97bd
00000030: 0d6b 0cbc bb78 6a3d 390a 903d

dyn_nf.flows.0.t1.network.0.bias f4 [5]
0.42681816 -0.033702206 0.38216838 -0.02175919 -0.009982823
00000000: e987 da3e 530b 0abd 93ab c33e 5440 b2bc
00000010: ff8e 23bc

dyn_nf.flows.0.t1.network.2.weight f4 [2, 5]
0.13084133 -0.13667542 0.12003977 -0.13776696 0.12096079 -0.026760394 0.015393132 -0.021296253
0.0297583 -0.01634053
00000000: 45fb 053e a4f4 0bbe 69d7 f53d c812 0dbe
00000010: 4aba f73d 9d38 dbbc 7a33 7c3c 7b75 aebc
00000020: aec7 f33c 93dc 85bc

dyn_nf.flows.0.t1.network.2.bias f4 [2]
-0.19700073 0.41504157
00000000: 8fba 49be 5480 d43e

dyn_nf.flows.0.s1.network.0.weight f4 [5, 3]
0.017039878 -0.03677427 -0.07956528 -0.007946393 0.044541977 0.09125905 -0.021868007 0.050486103
0.11002024 -0.02898858 0.01676095 -0.009250644 0.013300493 -0.03650903 -0.08640211
00000000: 3797 8b3c 9ea0 16bd 1ff3 a2bd 9731 02bc
00000010: a671 363d 06e6 ba3d 8924 b3bc 84ca 4e3d
00000020: 4b52 e13d 7579 edbc 434e 893c 0390 17bc
00000030: 50ea 593c 7e8a 15bd 97f3 b0bd

dyn_nf.flows.0.s1.network.0.bias f4 [5]
0.13263229 0.29860646 -0.41530135 0.08139905 -0.3714352
00000000: c2d0 073e f2e2 983e 61a2 d4be 8cb4 a63d
00000010: c12c bebe

dyn_nf.flows.0.s1.network.2.weight f4 [2, 5]
0.1286602 -0.13750468 -0.11917212 -0.02099467 0.12411005 0.124079354 -0.13495046 -0.12114701
-0.023120917 0.13097128
00000000: 80bf 033e 07ce 0cbe 8310 f4bd 04fd abbc
00000010: 692d fe3d 511d fe3d 7430 0abe ec1b f8bd
00000020: 1468 bdbc 561d 063e

dyn_nf.flows.0.s1.network.2.bias f4 [2]
0.3027216 0.39766648
00000000: 53fe 9a3e f19a cb3e

dyn_nf.flows.0.t2.network.0.weight f4 [5, 2]
0.0023278887 -0.008201416 -0.0067901933 0.014250834 0.01964749 0.007678398 0.019899093 0.0071825227
-0.004966665 0.013100289
00000000: 7e8f 183b 3b5f 06bc 4580 debb 547c 693c
00000010: c6f3 a03c 129b fb3b 6c03 a33c 5e5b eb3b
00000020: 68bf a2bb 98a2 563c

dyn_nf.flows.0.t2.network.0.bias f4 [5]
-0.6589911 0.62825906 0.53765553 -0.70535874 0.13235062
00000000: a4b3 28bf 96d5 203f cba3 093f 6492 34bf
00000010: ec86 073e

dyn_nf.flows.0.t2.network.2.weight f4 [3, 5]
0.0039555687 0.0008947941 -0.0016821093 -0.004727588 -0.019705763 0.0062808404 -0.0011315179 0.0046311147
0.0033380445 0.016443169 -0.012534805 -0.0005916037 0.011878497 0.012247393 -0.008521194
00000000: b79d 813b 9e90 6a3a 397a dcba e2e9 9abb
00000010: fb6d a1bc 82cf cd3b 714f 94ba 9bc0 973b
00000020: 18c3 5a3b d3b3 863c c85e 4dbc da15 1bba
00000030: 079e 423c 4aa9 483c 7a9c 0bbc

dyn_nf.flows.0.t2.network.2.bias f4 [3]
0.42071587 0.30134052 -0.19499637
00000000: 1268 d73e 4e49 9a3e 21ad 47be

dyn_nf.flows.0.s2.network.0.weight f4 [5, 2]
-0.056589052 -0.03423572 0.04301882 0.025086422 0.025040144 0.008134959 -0.06641903 -0.031554997
-0.0088172695 -0.02186264
00000000: ecc9 67bd c13a 0cbd 8134 303d 0a82 cd3c
00000010: fd20 cd3c 7e48 053c b306 88bd d03f 01bd
00000020: 4f76 10bc 4719 b3bc

dyn_nf.flows.0.s2.network.0.bias f4 [5]
0.5626045 0.5120081 -0.6068749 -0.20365338 0.006211565
00000000: d906 103f f612 033f 275c 1bbf 838a 50be
00000010: 628a cb3b

dyn_nf.flows.0.s2.network.2.weight f4 [3, 5]
0.050214775 -0.04403801 -0.0045889793 0.042716738 0.021576872 0.076991566 -0.03790919 -0.0065177334
0.06894146 0.01499426 0.05542391 -0.019961217 -0.007808374 0.059278917 0.013398361
00000000: 02ae 4d3d 3361 34bd 265f 96bb bff7 2e3d
00000010: fbc1 b03c c1ad 9d3d ab46 1bbd b692 d5bb
00000020: 2e31 8d3d 7caa 753c 2f04 633d b585 a3bc
00000030: 63dd ffbb 73ce 723d cd84 5b3c

dyn_nf.flows.0.s2.network.2.bias f4 [3]
-0.023693457 0.3189559 -0.0466869
00000000: c818 c2bc 304e a33e c33a 3fbd

prototype_transition.mult f4 [5, 5]
0.9922606 0.9865378 0.92733794 0.949531 0.982074 0.9794514 0.9993432 1.051122
1.038968 0.9931755 1.0894548 0.9143677 0.98636115 0.92868036 0.9360457 0.9945788
1.0699468 1.0523463 1.0597136 1.0702343 1.1029215 0.8854492 0.99692714 0.89489776
0.910819
00000000: ca04 7e3f be8d 7c3f 0566 6d3f 7714 733f
00000010: 3469 7b3f 54bd 7a3f f5d4 7f3f 2a8b 863f
00000020: e7fc 843f c040 7e3f 4173 8b3f 0014 6a3f
00000030: 2a82 7c3f ffbd 6d3f b1a0 6f3f b79c 7e3f
00000040: 04f4 883f 49b3 863f b2a4 873f 70fd 883f
00000050: 882c 8d3f ccac 623f 9e36 7f3f 0518 653f
00000060: 6f2b 693f

particle_encoder.0.weight f4 [16, 5]
0.3479942 0.43876317 0.39685008 0.3366978 -0.10036827 -0.14151603 0.3595168 0.28549716
-0.2992089 0.43156067 0.24844293 0.20818312 -0.28707668 0.11232001 -0.1496157 0.35287622
-0.07447536 0.17968716 0.08157648 0.18200679 -0.15439837 0.23134737 -0.29444838 0.07565012
-0.26838616 -0.4175574 -0.37555286 0.3740185 0.21678495 0.40629578 0.33764058 -0.37374118
-0.3384663 -0.10620393 -0.27735186 0.31886026 -0.34553018 -0.21996485 -0.43571362 -0.24440432
0.3790643 0.35581064 0.32997897 0.32198367 0.39435083 -0.13785535 0.21779266 0.3849778
0.16918387 0.41601202 0.2319031 0.27817968 -0.15699366 0.22084133 0.061643224 -0.08169755
-0.2767943 -0.2212146 -0.3236365 0.2817797 0.31204656 -0.043679565 -0.26346117 0.3549069
0.28674278 0.030656632 -0.20756824 0.4080354 0.17755 -0.33303964 0.4406516 0.32210773
-0.17042309 0.25561497 -0.27000427 -0.06507996 0.3822453 0.04402244 -0.33391514 -0.122822165
00000000: 4c2c b23e 91a5 e03e ef2f cb3e a763 ac3e
00000010: e18d cdbd 94e9 10be 9612 b83e af2c 923e
00000020: e931 99be 85f5 dc3e d367 7e3e f52d 553e
00000030: b7fb 92be 0908 e63d dc34 19be 31ac b43e
00000040: 8a86 98bd e9ff 373e 9211 a73d fd5f 3a3e
00000050: 9b1a 1ebe 53e6 6c3e f0c1 96be 73ee 9a3d
00000060: e969 89be 15ca d5be 7748 c0be 5a7f bf3e
00000070: e0fc 5d3e 0006 d03e 3adf ac3e 015b bfbe
00000080: 744b adbe 7281 d9bd 1001 8ebe a741 a33e
00000090: 55e9 b0be 773e 61be db15 dfbe 2045 7abe
000000a0: b714 c23e d02c b63e 01f3 a83e 0bdb a43e
000000b0: 5ae8 c93e f429 0dbe 0a05 5f3e cf1b c53e
000000c0: 893e 2d3e 87ff d43e 0278 6d3e 916d 8e3e
000000d0: f2c2 20be 3b24 623e 9b7d 7c3d 0c51 a7bd
000000e0: fcb7 8dbe 1586 62be afb3 a5be 6e45 903e
000000f0: 91c4 9f3e 58e9 32bd 62e4 86be 5bb6 b53e
00000100: f3cf 923e 9e23 fb3c c58c 54be 04ea d03e
00000110: abcf 353e 2c84 aabe 169d e13e 4eeb a43e
00000120: 6483 2ebe f7df 823e 003e 8abe a448 85bd
00000130: a8b5 c33e e050 343d edf6 aabe 308a fbbd

particle_encoder.0.bias f4 [16]
-0.13263161 -0.12725917 0.043300483 0.4022973 0.0020644076 -0.30295855 0.031042561 0.19914584
0.20723954 -0.38090408 -0.083358124 -0.35990456 -0.18866788 0.15654948 -0.30577332 0.13294826
00000000: 95d0 07be 3a50 02be d95b 313d e9f9 cd3e
00000010: 034b 073b 621d 9bbe f84c fe3c e3ec 4b3e
00000020: 9a36 543e dc05 c3be aab7 aabd 6945 b8be
00000030: 2732 41be 824e 203e 528e 9cbe 9723 083e

particle_encoder.2.weight f4 [32, 16]
0.19244745 -0.0046703788 -0.18361586 -0.09093556 0.038029596 -0.18855068 0.12231705 -0.22853431
-0.25864303 -0.26429638 -0.06815489 0.14940937 -0.2448646 0.20559901 -0.11425206 0.051401634
-0.012443472 -0.2726101 0.22357754 0.15076174 0.25314572 0.15431619 -0.18290552 0.19090173
0.017481975 0.06856179 -0.19846813 -0.07763664 -0.23100007 -0.09435734 0.073491424 -0.21460226
0.057499062 0.15354218 0.051407084 -0.17900586 -0.17790587 -0.069659755 0.09846651 0.24006118
0.15567791 -0.009694387 0.10380616 -0.21991149 -0.19902225 0.0951001 -0.13809817 0.13852167
-0.16815577 -0.12193182 -0.20337835 0.1269614 -0.0149428705 0.18807091 0.14233872 0.12454176
0.008495539 -0.07709911 -0.049899977 0.05136728 0.13595833 -0.17116487 0.21002209 -0.046705797
-0.20618905 -0.12739743 0.23009564 0.23869768 -0.22096097 0.18185753 0.124387495 0.14859901
0.21588512 -0.13027947 0.08783234 0.1230926 -0.061016034 0.075877085 -0.068581074 0.16036859
-0.055217225 -0.08879354 0.07216403 0.07479148 -0.113963515 0.009257373 0.13513882 -0.03546634
0.095198356 -0.04647475 0.0969494 -0.1715451 -0.13329752 -0.14127754 0.23951018 -0.060189538
-0.00068215467 -0.1210463 0.24941278 0.24401113 -0.18842602 -0.20253778 -0.18937665 -0.0012049116
-0.06368521 -0.16353151 -0.08961058 0.047202438 -0.13053899 0.05536011 -0.057292253 -0.1210632
0.02960715 0.20801707 -0.17612825 0.025521029 -0.09802264 0.24455726 -0.23496985 -0.23618537
0.24671231 -0.15267202 0.043113366 -0.0050057736 -0.050438743 -0.05545375 0.14218865 0.009120138
-0.26017433 -0.15823285 -0.09137473 0.12846443 -0.17035504 0.21710828 -0.04523605 -0.034792054
0.182529 0.114389434 0.20220345 0.13348752 -0.09049253 -0.17232253 -0.016929008 0.19795443
-0.07723823 -0.22040607 0.114426576 0.25045854 -0.05936119 -0.18723732 -0.218584 0.071209095
-0.02110985 -0.14011912 0.060314137 0.11242012 0.21192382 0.2056829 -0.027674727 -0.2180001
-0.22572438 0.22044653 0.10213914 0.09329621 -0.22690584 0.20895001 0.2222414 0.21054755
-0.23047096 -0.11026537 -0.18487114 0.22504476 -0.12423718 -0.124112874 0.113423444 -0.12518543
-0.13247453 -0.01678898 -0.042228945 -0.20112689 0.1930916 -0.108949065 0.09069362 0.22316477
0.11535305 0.048741262 0.19671494 0.03138571 -0.12513077 0.21188371 0.034582105 -0.24719605
-0.071127355 -0.1588101 0.22228183 -0.022673488 -0.23577571 -0.015705764 0.17144515 0.08024576
0.07900056 0.023203408 0.093747266 -0.043782417 -0.08014168 -0.23350433 -0.1967663 0.1163831
-0.15763728 0.020329256 0.063969284 0.0041146236 -0.17969778 0.21195348 -0.14257224 0.20801388
-0.20976098 -0.077100955 0.12039601 -0.11820137 0.18710785 -0.17222683 -0.2098082 -0.124367096
0.06703931 0.23232506 -0.10429645 0.09852911 -0.04898043 -0.050506644 0.18876545 -0.18545477
0.018927373 0.24468231 -0.021297561 0.17523098 -0.084538355 0.189725 -0.2188163 -0.026119746
-0.06841444 0.052266758 0.090739526 0.17445622 -0.017894208 -0.023605257 0.18037231 -0.061337013
0.18918362 -0.19528997 -0.052502252 -0.01587945 0.096181355 0.18282756 -0.017738895 -0.22872275
00000000: f210 453e fa09 99bb cc05 3cbe 6c3c babd
00000010: ecc4 1b3d 6e13 41be 5d81 fa3d e604 6abe
00000020: dc6c 84be db51 87be ca94 8bbd c5fe 183e
00000030: c9bd 7abe 8c88 523e fcfc e9bd 858a 523d
00000040: b4df 4bbc 8d93 8bbe 83f1 643e 4961 1a3e
00000050: 519c 813e 1005 1e3e 964b 3bbe be7b 433e
00000060: 5c36 8f3c 206a 8c3d 3b3b 4bbe f5ff 9ebd
00000070: 488b 6cbe 6c3e c1bd ac82 963d b2c0 5bbe
00000080: 2384 6b3d 293a 1d3e 3c90 523d 504d 37be
00000090: f52c 36be c6a9 8ebd cfa8 c93d 99d2 753e
000000a0: 086a 1f3e 35d5 1ebc 5398 d43d 7a30 61be
000000b0: 7dcc 4bbe d7c3 c23d 9b69 0dbe a0d8 0d3e
000000c0: 0731 2cbe 64b7 f9bd 6a42 50be 2b02 023e
000000d0: f1d2 74bc a995 403e 3ec1 113e c00f ff3d
000000e0: e030 0b3c 23e6 9dbd eb63 4cbd 7f66 523d
000000f0: a938 0b3e d845 2fbe 0810 573e 944e 3fbd
00000100: 3923 53be 7974 02be 319e 6b3e 2a6d 743e
00000110: 9843 62be dc38 3a3e dfbe fe3d 572a 183e
00000120: fd10 5d3e fb67 05be 71e1 b33d f917 fc3d
00000130: f3eb 79bd 7265 9b3d 3c74 8cbd aa37 243e
00000140: 752b 62bd 63d9 b5bd bcca 933d 472c 993d
00000150: b465 e9bd 3dac 173c d561 0a3e 2745 11bd
00000160: 5bf7 c23d 4f5c 3ebd 688d c63d 85a9 2fbe
00000170: 257f 08be 0fab 10be 2842 753e 4e89 76bd
00000180: a0d2 32ba 1fe7 f7bd 1066 7f3e 0ede 793e
00000190: c0f2 40be 1066 4fbe f4eb 41be 20ee 9dba
000001a0: 646d 82bd ce74 27be c085 b7bd 5857 413d
000001b0: 03ac 05be 48c1 623d 48ab 6abd fcef f7bd
000001c0: b28a f23c 6d02 553e f75a 34be 7a11 d13c
000001d0: 18c0 c8bd 386d 7a3e f09b 70be 94da 71be
000001e0: 27a2 7c3e 0e56 1cbe a497 303d 7907 a4bb
000001f0: db98 4ebd 7923 63bd e799 113e a26c 153c
00000200: 9235 85be cb07 22be ad22 bbbd 2e8c 033e
00000210: 8d71 2ebe a251 5e3e 7049 39bd 1d82 0ebd
00000220: e2e8 3a3e 0245 ea3d 6c0e 4f3e f4b0 083e
00000230: 2654 b9bd 5175 30be b4ae 8abc 91b4 4a3e
00000240: 142f 9ebd 21b2 61be 7b58 ea3d 1a3c 803e
00000250: b824 73bd 24bb 3fbe 7cd4 5fbe 13d6 913d
00000260: 90ee acbc 637b 0fbe f50b 773d 853c e63d
00000270: 8f02 593e 8a9e 523e 1cb6 e2bc 6b3b 5fbe
00000280: 4b24 67be bcbc 613e 532e d13d 1512 bf3d
00000290: 015a 68be fef6 553e 4093 633e c799 573e
000002a0: 9400 6cbe cfd2 e1bd dc4e 3dbe 2272 663e
000002b0: 1070 febd e42e febd 8d4a e83d 9c30 00be
000002c0: 67a7 07be 0b89 89bc 42f8 2cbd 35f4 4dbe
000002d0: ceb9 453e b020 dfbd 94bd b93d 4e85 643e
000002e0: 383e ec3d eba4 473d a46f 493e 4d8e 003d
000002f0: 4822 00be 0bf8 583e f7a5 0d3d f620 7dbe
00000300: 38ab 91bd 1d9f 22be d99d 633e c0bd b9bc
00000310: 306f 71be 60a9 80bc 518f 2f3e e457 a43d
00000320: 0ccb a13d 1315 be3c 91fe bf3d 3155 33bd
00000330: 5221 a4bd c21b 6fbe 1b7d 49be 435a ee3d
00000340: ab6b 21be 8a89 a63c 5402 833d f7d3 863b
00000350: b202 38be 550a 593e 75fe 11be 9701 553e
00000360: 95cb 56be 1be7 9dbd 2f92 f63d 8f13 f2bd
00000370: 3399 3f3e 3b5c 30be f6d7 56be 2db4 febd
00000380: e84b 893d 9fe6 6d3e 6199 d5bd a1c9 c93d
00000390: b49f 48bd 0ee0 4ebd bb4b 413e dbe7 3dbe
000003a0: 940d 9b3c 008e 7a3e 3978 aebc c06f 333e
000003b0: 7222 adbd 4547 423e 6111 60be 14f9 d5bc
000003c0: df1c 8cbd ab15 563d a5d5 b93d a7a4 323e
000003d0: e096 92bc d05f c1bc 85b3 383e 853c 7bbd
000003e0: 5ab9 413e 18fa 47be 9a0c 57bd 9f15 82bc
000003f0: bbfa c43d 2637 3b3e 2951 91bc 4c36 6abe

particle_encoder.2.bias f4 [32]
-0.10202696 -0.011471782 -0.21662796 -0.23225506 0.1165818 -0.09838773 -0.15200013 -0.09606027
-0.21647918 -0.17491038 0.12881936 0.10780585 0.048903137 -0.15685073 0.104374416 0.013205386
-0.2086011 0.066040084 0.23597746 -0.2509044 -0.2785203 -0.00093808083 0.17244342 -0.17175949
0.011507993 0.18788853 0.056195036 0.0603871 0.21376868 0.13853858 -0.13997103 0.012277834
00000000: 83f3 d0bd 24f4 3bbc b8d3 5dbe 45d4 6dbe
00000010: 70c2 ee3d 827f c9bd eca5 1bbe 3fbb c4bd
00000020: b8ac 5dbe b51b 33be 39e9 033e 50c9 dc3d
00000030: a84e 483d 7a9d 20be 41c2 d53d 675b 583c
00000040: 879b 55be 0640 873d 13a4 713e 8b76 80be
00000050: 369a 8ebe 8ae9 75ba 0295 303e b8e1 2fbe
00000060: 058c 3c3c da65 403e c42c 663d 7758 773d
00000070: 2de6 5a3e 0fdd 0d3e 9154 0fbe f828 493c

particle_encoder.4.weight f4 [64, 32]
0.07967881 0.10041306 -0.17434375 0.09288586 -0.044617962 -0.1776913 0.039214678 -0.075391635
0.035620566 -0.10992834 -0.12821276 -0.035834916 -0.059313934 0.10139384 0.04103319 0.15146515
0.048724882 -0.07511648 0.093512036 0.019482564 0.06420671 -0.070929475 0.0036642083 -0.061904743
0.0041775485 -0.10423312 -0.01838793 -0.153782 -0.01430392 0.111896485 -0.10505768 -0.09361283
-0.036775798 0.008142146 0.038077485 0.042487673 0.09877308 -0.11903896 -0.012467354 0.07798031
0.15306878 -0.006713408 -0.091350056 0.09188576 0.10900453 -0.105139114 -0.089034945 0.086481534
0.015175433 -0.14082183 -0.0969065 0.06734148 -0.0667213 0.15904829 0.14364617 0.06616237
0.010174801 -0.05796076 0.0017474598 0.038943473 -0.11180094 -0.011129573 -0.13852565 0.1139106
-0.10216357 0.12104235 -0.031191071 -0.09912907 0.08740687 0.023897825 0.12233164 0.08428136
-0.18642211 0.1268896 -0.02953018 -0.104024306 0.110805824 0.12948538 -0.14406985 -0.0114866765
0.13825925 0.06215628 0.14267333 -0.063430026 -0.07128706 0.1322916 0.060355987 0.14298178
-0.07991935 -0.11294256 -0.037253577 -0.16468921 0.040555216 0.1202101 0.04498699 -0.0062111723
0.07721305 -0.10293643 0.16341133 -0.18395248 -0.17840013 -0.035378072 0.14430656 0.009132206
0.06486704 -0.142515 0.04904887 -0.023834608 0.08001527 0.13216743 0.06794766 -0.024084987
-0.0140457675 -0.10621016 -0.07421763 0.1004563 -0.07840222 0.1164068 -0.076479346 -0.041005284
0.00020077806 -0.16893551 -0.011575715 -0.028704662 -0.0307904 -0.037090793 0.1484821 0.12402626
-0.106853984 0.08428355 -0.13535282 -0.13738239 0.05332198 0.004611664 -0.08241452 -0.17112797
-0.05923997 0.0720131 -0.16370736 -0.17817576 0.022413744 -0.11821253 -0.14564249 -0.046244383
-0.032385387 -0.16730066 -0.11796312 0.011583447 -0.18371837 -0.03167783 -0.12813886 -0.13265102
0.060456414 -0.14570895 -0.13364752 0.12787291 0.039697148 0.15623945 -0.047221333 -0.0856342
-0.016349567 0.0008938035 0.13473143 -0.1759707 -0.0125785535 0.078147486 -0.09728546 -0.08976999
0.08537566 -0.16927609 0.041861434 -0.13677038 0.087812684 -0.15105443 0.10861353 -0.1672353
-0.14849724 0.0026034699 0.13920882 -0.15129398 -0.078802414 0.15516022 -0.029625984 0.07318889
-0.16994995 -0.05555725 -0.08971543 0.14893821 0.073322415 -0.12890716 0.028482934 -0.0020304692
-0.07205535 -0.107521616 -0.053746372 0.12027217 -0.10994372 -0.12584512 -0.054504063 0.013459913
0.054182068 0.007454842 -0.047750708 -0.10116625 -0.03169921 -0.062394604 0.14927313 -0.14738299
-0.10890441 -0.14202724 -0.074448526 0.13685338 0.16005954 -0.15108232 0.0034167683 0.10127869
0.07908412 0.14893803 -0.0025502953 -0.117376834 0.13498808 -0.05322821 0.084460974 -0.04010342
0.06640237 0.11523116 0.1746359 -0.19221273 -0.118082 -0.08452698 -0.11265844 0.18375902
-0.007729942 -0.119976096 -0.07801863 -0.11773997 0.07207676 -0.15583098 -0.15127538 -0.1591524
0.08470975 0.073907286 -0.14233331 0.06785709 0.16085206 0.009998205 -0.026064577 -0.01069411
-0.0063285017 0.12496588 -0.1343745 0.05777492 0.11945608 -0.10553906 0.13114387 0.18799588
00000000: a52e a33d 5da5 cd3d 2b87 32be f13a be3d
00000010: 53c1 36bd b5f4 35be 929f 203d ee66 9abd
00000020: dfe6 113d 1c22 e1bd 354a 03be a2c7 12bd
00000030: 2bf3 72bd 93a7 cf3d 6b12 283d ae19 1b3e
00000040: be93 473d abd6 99bd 3d83 bf3d e699 9f3c
00000050: cf7e 833d 7943 91bd 3723 703b d48f 7dbd
00000060: d1e3 883b 2d78 d5bd 49a2 96bc 0779 1dbe
00000070: fd5a 6abc fc29 e53d 7b28 d7bd 15b8 bfbd
00000080: 38a2 16bd a366 053c 23f7 1b3d 8e07 2e3d
00000090: 8a49 ca3d b3ca f3bd df43 4cbc 24b4 9f3d
000000a0: 10be 1c3e 26fc dbbb bd15 bbbd 9a2e bc3d
000000b0: c43d df3d 2d53 d7bd f457 b6bd 3b1d b13d
000000c0: 61a2 783c 9933 10be ea76 c6bd 54ea 893d
000000d0: 2da5 88bd 8edd 223e fb17 133e 2380 873d
000000e0: 35b4 263c 4368 6dbd 050b e53a 3183 1f3d
000000f0: e4f7 e4bd d058 36bc abd9 0dbe f649 e93d
00000100: 223b d1bd 0de5 f73d 6b84 ffbc 2f04 cbbd
00000110: 6002 b33d 5fc5 c33c 0389 fa3d b59b ac3d
00000120: 70e5 3ebe 59ef 013e 47e9 f1bc b20a d5bd
00000130: 2aee e23d d197 043e 0c87 13be 9d32 3cbc
00000140: d593 0d3e 9597 7e3d f518 123e 9ae7 81bd
00000150: f3fe 91bd 7377 073e d737 773d d169 123e
00000160: c2ac a3bd 6e4e e7bd 3597 18bd 4aa4 28be
00000170: 3a1d 263d b730 f63d 4744 383d 1787 cbbb
00000180: e021 9e3d 56d0 d2bd 4d55 273e 0a5e 3cbe
00000190: 86ae 36be 99e8 10bd 19c5 133e 409f 153c
000001a0: 03d9 843d 74ef 11be 78e7 483d cc40 c3bc
000001b0: 0cdf a33d e656 073e 2528 8b3d e14d c5bc
000001c0: 3820 66bc b684 d9bd 6aff 97bd 08bc cd3d
000001d0: 5891 a0bd b066 ee3d 34a1 9cbd 28f5 27bd
000001e0: f387 5239 6efd 2cbe 11a8 3dbc 0a26 ebbc
000001f0: 263c fcbc 84ec 17bd b10b 183e 7b01 fe3d
00000200: 43d6 dabd db9c ac3d ee99 0abe f8ad 0cbe
00000210: 2668 5a3d 711d 973b f2c8 a8bd 2c3c 2fbe
00000220: 9ca5 72bd 9b7b 933d e7a2 27be b573 36be
00000230: 079d b73c 6919 f2bd 4e23 15be c06a 3dbd
00000240: 8aa6 04bd dd50 2bbe a696 f1bd 80c8 3d3c
00000250: ab20 3cbe 9dc0 01bd d536 03be abd5 07be
00000260: 25a1 773d ba34 15be e5da 08be 1ef1 023e
00000270: 7a99 223d 3cfd 1f3e 286b 41bd fc60 afbd
00000280: 87ef 85bc 234e 6a3a 09f7 093e aa31 34be
00000290: 4716 4ebc ca0b a03d 993d c7bd 54d9 b7bd
000002a0: 6fd9 ae3d b656 2dbe e576 2b3d 890d 0cbe
000002b0: 23d7 b33d 03ae 1abe c570 de3d bb3f 2bbe
000002c0: a90f 18be fa9e 2a3b c28c 0e3e cfec 1abe
000002d0: 2963 a1bd 52e2 1e3e 31b2 f2bc 0fe4 953d
000002e0: 5c07 2ebe 0090 63bd b9bc b7bd 4283 183e
000002f0: 102a 963d 3d00 04be 0b55 e93c 9f11 05bb
00000300: c191 93bd 4b34 dcbd 2825 5cbd 4151 f63d
00000310: 2c2a e1bd 8bdd 00be a73f 5fbd f886 5c3c
00000320: 04ee 5d3d bf47 f43b 3f96 43bd 4030 cfbd
00000330: 08d7 01bd 7c91 7fbd 0edb 183e 91eb 16be
00000340: 4609 dfbd 976f 11be 7878 98bd 4b23 0c3e
00000350: a6e6 233e 53b5 1abe dceb 5f3b 346b cf3d
00000360: dbf6 a13d 3683 183e db22 27bb 4463 f0bd
00000370: 513a 0a3e d305 5abd e0f9 ac3d 7c43 24bd
00000380: f7fd 873d 50fe eb3d c1d3 323e 6ad3 44be
00000390: fad4 f1bd 7b1c adbd 78b9 e6bd 532b 3c3e
000003a0: 744b fdbb 07b6 f5bd 3bc8 9fbd a721 f1bd
000003b0: fb9c 933d 2892 1fbe efe7 1abe d9f8 22be
000003c0: 4e7c ad3d b45c 973d d3bf 11be a8f8 8a3d
000003d0: 67b6 243e 83cf 233c 6185 d5bc 5936 2fbc
000003e0: 525f cfbb 1cee ff3d 7899 09be 65a5 6c3d
000003f0: 64a5 f43d dd24 d8bd 944a 063e fe81 403e

particle_encoder.4.bias f4 [64]
0.021765817 -0.054275732 0.12172616 -0.084478125 0.03915705 -0.051175658 0.09627739 -0.014292598
0.12467068 -0.055113614 -0.10030895 0.050929442 -0.11814764 -0.15066384 0.06573749 -0.13868073
-0.05834657 -0.0618346 0.0015430842 -0.07623349 -0.080825366 -0.03936161 0.14524968 0.045328826
-0.100141555 -0.12454244 0.039221216 0.028253423 -0.007846568 0.09861396 0.12037856 0.042277068
0.0476573 0.09575914 -0.066975795 0.012457631 0.15051906 -0.103919275 -0.0058461414 -0.09152721
-0.15871322 0.09216665 0.14937237 -0.12838237 0.06777585 0.048876297 0.04540576 0.08636801
0.16493131 0.110006556 -0.15073618 -0.07842665 0.060521923 -0.123984955 0.03687062 -0.09522467
0.01877786 0.0670353 0.05593899 0.11229505 -0.031794723 0.0690448 0.023860177 -0.06029765
00000000: 3a4e b23c 3b50 5ebd 914b f93d de02 adbd
00000010: 2563 203d 919d 51bd 152d c53d 802b 6abc
00000020: 5753 ff3d d0be 61bd c76e cdbd 649b 503d
00000030: 64f7 f1bd 9f47 1abe 61a1 863d 5202 0ebe
00000040: d0fc 6ebd 4746 7dbd 5041 ca3a 4e20 9cbd
00000050: c587 a5bd a439 21bd 55bc 143e b8aa 393d
00000060: 0417 cdbd 1b10 ffbd 6da6 203d b973 e73c
00000070: e48e 00bc 1ef6 c93d 0989 f63d b82a 2d3d
00000080: 4d34 433d 5e1d c43d 9b2a 89bd 171b 4c3c
00000090: ab21 1a3e a1d3 d4bd fd90 bfbb 9e72 bbbd
000000a0: b885 22be dec1 bc3d 12f5 183e ab76 03be
000000b0: 11ce 8a3d 8332 483d 64fb 393d b6e1 b03d
000000c0: c1e3 283e 1e4b e13d 965a 1abe 279e a0bd
000000d0: d6e5 773d d3eb fdbd a605 173d 2705 c3bd
000000e0: 07d4 993c ce49 893d 4820 653d f2fa e53d
000000f0: 2f3b 02bd 5c67 8d3d 6b76 c33c abfa 76bd

particle_encoder.7.weight f4 [10, 64]
-0.04161241 0.15022624 -0.03107724 0.08123257 0.09928954 -0.005030319 -0.11538728 0.032650035
-0.10071348 0.017041601 -0.06637819 0.06994401 -0.1284548 -0.029954614 0.014118514 -0.009413851
0.086637296 -0.045361586 -0.085506745 0.06320822 0.008535442 0.076519385 -0.028561022 -0.09383784
-0.049530942 -0.025176575 0.059145972 -0.09700129 -0.016717376 -0.028821578 0.09807013 -0.08138785
0.11498674 -0.11343536 -0.056659825 -0.1183199 0.10121356 -0.09473733 0.04349086 -0.073633075
0.118540965 -0.0027319368 -0.07281745 0.0320166 0.014052778 -0.13687795 0.015244131 0.10430383
0.03594902 -0.03623654 -0.024777945 0.016697662 -0.08247279 0.09870133 0.10585561 0.03666714
-0.05424464 -0.11680142 -0.036577266 0.089107074 -0.17208114 -0.10356255 -0.04945953 0.011561662
-0.08166852 -0.08375071 -0.015520717 -0.040674448 0.11404175 0.03586586 -0.11373728 -0.094331
0.049465366 -0.03557814 -0.043970745 -0.00475252 -0.03854818 0.060988642 0.03176076 -0.08808305
-0.10292728 0.05337344 -0.061091933 -0.026924033 -0.004946813 -0.073276035 0.09518861 -0.10671043
0.013772624 -0.016416498 0.06851296 -0.119159326 -6.9453934e-05 0.046075217 -0.10425017 0.009321277
0.018716771 0.08442651 -0.003529277 -0.023089036 -0.0473074 -0.010926536 0.03929008 -0.15617332
0.08597648 0.07671678 0.06024686 0.093892135 -0.040015027 -0.0015989535 0.024423605 -0.096624814
-0.048024952 -0.063887306 -0.027586289 -0.10899046 -0.09934087 -0.021035315 -0.016810058 -0.10318901
0.018552348 0.07207199 0.10948455 0.076611735 -0.13412644 -0.014227545 -0.08640079 0.0048131114
-0.015790392 -0.0030917407 0.0639485 0.08266188 -0.09034316 0.08575517 0.09835209 0.0032677862
-0.07728071 -0.044364635 0.05021457 0.0748112 0.112451375 0.06362183 0.050383795 0.004770591
0.11081279 -0.038386546 0.038487397 -0.031183576 0.01820665 0.08641295 0.021934792 -0.013494499
-0.0008908601 -0.04291166 0.046289872 0.10317029 0.064915545 -0.111289866 -0.090156876 0.110145696
-0.020239558 0.10374409 0.09572434 -0.024878265 -0.07717888 -0.10926996 0.05939691 0.08057155
-0.0094033545 -0.1021668 -0.09353827 -0.010279071 0.058137804 -0.02862664 -0.06924387 -0.08081459
0.1117695 0.07964968 -0.09888403 -0.05741457 -0.097022496 0.032079186 -0.052919175 0.021679517
-0.009404824 -0.11689752 -0.14693023 -0.08408891 -0.0029644412 0.011472567 -0.01877102 0.02465522
-0.0036122226 0.09194773 -0.05404016 0.11777399 -0.10867034 -0.1042251 0.02813513 -0.0938177
0.08231977 -0.08099402 0.08750071 0.1401335 0.031011015 0.021706635 0.1198097 0.0979379
-0.1023084 -0.029367318 -0.10972765 0.08621337 -0.0126281055 -0.021183403 -0.09127746 -0.06327443
0.018180814 0.096012175 -0.07087487 -0.0040345313 0.095583044 0.13410152 -0.030281113 0.09745066
0.049352616 0.11663945 0.007527511 -0.09919564 -0.013582583 0.034322217 0.05730918 -0.12239075
0.07779712 -0.1254928 0.06561729 0.11180019 0.02971846 -0.012194194 0.072384216 -0.03542848
-0.09253222 -0.07903524 0.049263142 0.11203718 0.025665572 -0.08368381 -0.12493936 -0.014105848
0.06472428 -0.076453455 0.02669034 -0.07645795 0.10583788 -0.05074743 -0.021747792 -0.11935235
00000000: c671 2abd e8d4 193e b295 febc 435d a63d
00000010: 5058 cb3d 60d5 a4bb 2b50 ecbd 0bbc 053d
00000020: de42 cebd d49a 8b3c 4af1 87bd ce3e 8f3d
00000030: a889 03be 6163 f5bc 5751 673c 8e3c 1abc
00000040: e56e b13d 12cd 39bd 291e afbd 5073 813d
00000050: 3dd8 0b3c 32b6 9c3d cef8 e9bc 0e2e c0bd
00000060: f5e0 4abd 1b3f cebc 0c43 723d 9da8 c6bd
00000070: e1f2 88bc 3b1b ecbc fed8 c83d acae a6bd
00000080: 2b7e eb3d cc50 e8bd 2214 68bd b451 f2bd
00000090: 0e49 cf3d a505 c2bd 7923 323d f0cc 96bd
000000a0: 9bc5 f23d 4b0a 33bb 5121 95bd d723 033d
000000b0: 9f3d 663c bc29 0cbe 85c2 793c 3f9d d53d
000000c0: 483f 133d c46c 14bd 1efb cabc 89c9 883c
000000d0: 7ee7 a8bd ec23 ca3d d3ca d83d 4830 163d
000000e0: a12f 5ebd 9535 efbd 0bd2 15bd c57d b63d
000000f0: 0a36 30be 9a18 d4bd 1396 4abd 206d 3d3c
00000100: d341 a7bd 7e85 abbd 9b4a 7ebc 409a 26bd
00000110: b98e e93d 14e8 123d 17ef e8bd 9c30 c1bd
00000120: 329c 4a3d 62ba 11bd ab1a 34bd 07bb 9bbb
00000130: b2e4 1dbd 3acf 793d 9217 023d e364 b4bd
00000140: 8acb d2bd 1c9e 5a3d 893b 7abd ca8f dcbc
00000150: e018 a2bb bf11 96bd 3ff2 c23d ff8a dabd
00000160: 92a6 613c e47b 86bc 8650 8c3d ce09 f4bd
00000170: cca7 91b8 5eb9 3c3d 1d81 d5bd 45b8 183c
00000180: ea53 993c cee7 ac3d 714b 67bb 3825 bdbc
00000190: 67c5 41bd 3705 33bc a3ee 203d e6eb 1fbe
000001a0: 7014 b03d b01d 9d3d 69c5 763d 854a c03d
000001b0: cce6 23bd fa93 d1ba 0314 c83c 3be3 c5bd
000001c0: d0b5 44bd 59d7 82bd a4fc e1bc 6436 dfbd
000001d0: 3a73 cbbd 4152 acbc 3fb5 89bc c254 d3bd
000001e0: 18fb 973c 7b9a 933d 7039 e03d 9de6 9c3d
000001f0: 7158 09be a61a 69bc e6f2 b0bd 4eb7 9d3b
00000200: da5a 81bc cd9e 4abb 6ef7 823d a24a a93d
00000210: d605 b9bd 68a0 af3d d26c c93d 5b28 563b
00000220: 5945 9ebd b1b7 35bd cbad 4d3d 9d36 993d
00000230: e84c e63d 294c 823d 3d5f 4e3d 9e52 9c3b
00000240: d1f1 e23d 363b 1dbd f6a4 1d3d b374 ffbc
00000250: 1d26 953c 46f9 b03d 98b0 b33c 0818 5dbc
00000260: 9c88 69ba 23c4 2fbd 739a 3d3d f24a d33d
00000270: 71f2 843d f1eb e3bd 2ba4 b8bd 1194 e13d
00000280: 6ecd a5bc c877 d43d 1f0b c43d 81cd cbbc
00000290: f60f 9ebd eec8 dfbd 2d4a 733d b202 a53d
000002a0: 8710 1abc d43c d1bd fe90 bfbd 8c69 28bc
000002b0: e821 6e3d 6a82 eabc bbcf 8dbd 1f82 a5bd
000002c0: 68e7 e43d 5f1f a33d b683 cabd 8a2b 6bbd
000002d0: bbb3 c6bd 7765 033d c7c1 58bd 3e99 b13c
000002e0: b116 1abc f867 efbd e174 16be ce36 acbd
000002f0: 1247 42bb 6ff7 3b3c afc5 99bc bef9 c93c
00000300: 0abb 6cbb 174f bc3d 3759 5dbd 7d33 f13d
00000310: 8e8e debd f873 d5bd a57b e63c 7f23 c0bd
00000320: 4497 a83d 31e0 a5bd 9233 b33d 287f 0f3e
00000330: d00a fe3c 1dd2 b13c ca5e f53d aa93 c83d
00000340: 1187 d1bd bb93 f0bc e4b8 e0bd a390 b03d
00000350: 1de6 4ebc d188 adbc adef babd 0696 81bd
00000360: eeef 943c 08a2 c43d d826 91bd 1a34 84bb
00000370: 0bc1 c33d e951 093e 1910 f8bc 3694 c73d
00000380: f825 4a3d aae0 ee3d 57a9 f63b 1527 cbbd
00000390: 7b89 5ebc 7495 0c3d 08bd 6a3d 00a8 fabd
000003a0: 1954 9f3d 2f81 00be 5c62 863d 7ff7 e43d
000003b0: 2174 f33c 28ca 47bc 2d3e 943d 741d 11bd
000003c0: 8881 bdbd 3add a1bd 26c8 493d c073 e53d
000003d0: 9b40 d23c 6b62 abbd 35e0 ffbd 371c 67bc
000003e0: 2a8e 843d a193 9cbd b3a5 da3c fc95 9cbd
000003f0: 88c1 d83d 8adc 4fbd 6d28 b2bc 016f f4bd

particle_encoder.7.bias f4 [10]
0.061512083 0.02062154 0.09189699 0.088877566 -0.060221884 -0.044339143 -0.0015654309 0.052140813
-0.008831666 0.0822585
00000000: 18f4 7b3d 81ee a83c 7d34 bc3d 7105 b63d
00000010: 39ab 76bd f69c 35bd 252f cdba 9b91 553d
00000020: b1b2 10bc 2577 a83d

obs_encoder.0.weight f4 [16, 2]
0.48755398 -0.12741841 0.34703216 0.0961089 0.27125087 0.29091507 -0.21431448 -0.27674887
0.30204862 -0.45243618 0.37099525 -0.4534036 0.48478904 0.28353694 -0.19014306 0.43178427
-0.24701984 0.17738906 0.20805556 0.072169505 0.14190738 -0.014028513 -0.20650378 0.40761784
0.27872658 0.2635786 0.47707242 -0.36973512 -0.17684373 0.00082945026 0.570258 -0.56271625
00000000: ada0 f93e f979 02be 33ae b13e bed4 c43d
00000010: 65e1 8a3e d2f2 943e 4175 5bbe 07b2 8dbe
00000020: 1ea6 9a3e b7a5 e7be 17f3 bd3e 8424 e8be
00000030: 4536 f83e c12b 913e ddb4 42be d412 dd3e
00000040: c5f2 7cbe 7aa5 353e 840c 553e 9bcd 933d
00000050: 2b50 113e d9d7 65bc ba75 53be 49b3 d03e
00000060: 40b5 8e3e c6f3 863e d642 f43e ec4d bdbe
00000070: 8616 35be 776f 593a 6efc 113f 2c0e 10bf

obs_encoder.0.bias f4 [16]
-0.40533623 -0.16832511 -0.603624 -0.5394953 0.48407304 0.03296454 -0.5684866 -0.10489152
-0.012884853 -0.25122666 -0.5910789 0.38187522 -0.08727983 0.6899291 -0.533126 -0.38794386
00000000: 3b88 cfbe 6b5d 2cbe 1a87 1abf 5d1c 0abf
00000010: 6cd8 f73e d305 073d 5688 11bf 5ed1 d6bd
00000020: fe1a 53bc c8a0 80be f250 17bf 2685 c33e
00000030: c4bf b2bd 329f 303f f27a 08bf 94a0 c6be

obs_encoder.2.weight f4 [32, 16]
-0.012979925 -0.17398244 0.1820763 0.21398515 0.22633865 -0.1577143 0.17776117 0.19502497
-0.07819593 0.027415037 0.1190539 0.20017415 -0.2333495 0.24873441 -0.04154483 0.10179591
-0.15517259 -0.1922626 -0.1692003 0.1472443 -0.12323773 0.14523464 0.07553014 0.09938052
-0.055570394 -0.07903015 -0.11689523 -0.13965243 0.23036 -0.013577819 -0.10714021 -0.23245217
0.010868818 -0.24800056 -0.0029419586 0.15775082 -0.14390008 0.13727178 -0.079696536 -0.19215456
-0.24745095 0.12411523 -0.1911506 0.12199101 0.035771817 0.13578632 -0.18780243 0.21848333
-0.24884818 -0.18963721 0.14982608 0.008491039 -0.14029363 -0.052407533 -0.22234115 -0.21743801
-0.05360219 0.19059101 0.07461333 0.047112554 -0.06621465 0.2273972 0.0023927838 0.08435908
0.0039709955 0.038986444 0.083313376 0.20993228 0.14380997 0.031974167 0.09988586 -0.055712443
0.18968813 0.0701347 0.18854924 -0.019788887 -0.20398828 0.049354818 0.120371185 0.20187598
0.09683582 0.09230989 0.19882399 -0.08586019 0.22059041 0.12809154 0.16685456 0.17818314
-0.20411617 0.13013116 0.23268515 -0.17551774 -0.021412998 -0.15247566 -0.060329027 0.037233114
0.13364136 -0.072532445 -0.23657894 0.14703265 0.14016798 -0.04529274 0.21388204 0.20551555
-0.042439066 0.009647883 0.044009328 -0.036115482 -0.06155145 -0.11277768 -0.12960805 0.12477335
-0.074187554 -0.11985782 0.22008255 0.04085989 0.18026513 0.22767743 -0.035195023 0.038938496
0.23298076 -0.17189863 -0.07490891 0.03697275 -0.016949922 0.066516876 0.13285622 -0.102788836
0.019453764 0.22603363 -0.14137268 -0.16942304 -0.19160241 0.14934385 -0.22916111 -0.12149727
0.16874033 -0.14977434 0.20317346 -0.11679116 0.039524656 0.032704443 -0.006128162 0.15561143
0.21219456 -0.15599045 0.14011869 0.081931524 -0.004655659 -0.17468992 0.07411212 0.19719407
-0.19894499 -0.2307407 -0.24561363 0.07334813 -0.071787655 -0.077607065 0.24818096 -0.06372559
-0.1586603 0.022473395 -0.13712761 -0.054519407 0.13197288 0.057661504 -0.17144525 0.25656772
0.18778607 -0.17031202 0.1088258 0.12143472 -0.17927283 -0.17558584 -0.1880908 0.11129117
0.04352832 0.105587006 -0.109736085 0.20936789 0.031901747 -0.19935402 -0.0628849 0.15086514
0.07750532 -0.03822108 -0.17455214 -0.13240996 0.21549484 -0.1431174 0.1996182 -0.08362529
0.002497293 -0.24329156 -0.08121407 0.21060991 -0.22430597 0.12570989 -0.21026117 0.036439806
-0.2265138 -0.19778174 -0.20169517 -0.08663201 0.034017533 -0.18317571 0.06331852 0.1504761
0.20366904 0.22121987 0.16449189 -0.05692128 -0.023024976 0.22105205 0.12428507 -0.04831506
0.20607214 -0.21834114 0.21382995 0.15755735 -0.18324801 -0.2037726 0.21278659 0.24647033
0.021801803 -0.09762127 0.14226213 0.11608513 -0.03118056 0.200026 0.16193968 0.06698533
0.13385129 -0.2340239 -0.117027074 0.03187298 0.06794208 -0.034155726 0.09852045 0.076108456
-0.23090309 0.078804016 -0.0203133 -0.16710043 0.008431613 -0.06144545 -0.13267511 -0.22293891
0.21401335 -0.15172684 0.033556327 0.20531356 -0.031475484 -0.16374859 -0.23702255 0.041511804
00000000: c0a9 54bc 7428 32be 3672 3a3e ec1e 5b3e
00000010: 52c5 673e dc7f 21be 0607 363e a0b4 473e
00000020: 3025 a0bd 8095 e03c 88d2 f33d 74fa 4c3e
00000030: 2cf3 6ebe 3cb4 7e3e e92a 2abd 607a d03d
00000040: 90e5 1ebe 7de0 44be d842 2dbe 36c7 163e
00000050: 1064 fcbd 64b8 143e 8caf 9a3d 0488 cb3d
00000060: c89d 63bd 8fda a1bd c466 efbd 0c01 0fbe
00000070: 7ee3 6b3e 8075 5ebc 546c dbbd f107 6ebe
00000080: 2013 323c dcf3 7dbe e0cd 40bb 6e89 213e
00000090: 8b5a 13be f990 0c3e f037 a3bd 2ac4 44be
000000a0: c863 7dbe 2030 fe3d fcbc 43be 6cd6 f93d
000000b0: 7885 123d 920b 0b3e 484f 40be 18ba 5f3e
000000c0: 0fd2 7ebe 4230 42be 026c 193e 001e 0b3c
000000d0: 22a9 0fbe 48a9 56bd 66ad 63be 12a8 5ebe
000000e0: f88d 5bbd 4a2a 433e e0ce 983d 18f9 403d
000000f0: 8c9b 87bd d0da 683e 40d0 1c3b 74c4 ac3d
00000100: 201f 823b 40b0 1f3d 34a0 aa3d 7df8 563e
00000110: ec42 133e 58f7 023d f590 cc3d bb32 64bd
00000120: 9b3d 423e c8a2 8f3d 0d13 413e 4e1c a2bc
00000130: 4ee2 50be 4728 4a3d 2b85 f63d 94b8 4e3e
00000140: dc51 c63d f80c bd3d 8498 4b3e 78d7 afbd
00000150: 74e2 613e 6e2a 033e ecdb 2a3e a475 363e
00000160: d403 51be 1a41 053e 0445 6e3e ecba 33be
00000170: 506a afbc 9422 1cbe 921b 77bd c081 183d
00000180: 48d9 083e e48b 94bd c041 72be ba8f 163e
00000190: 3288 0f3e e184 39bd e503 5b3e ab72 523e
000001a0: 96d4 2dbd 2712 1e3c 2043 343d d4ed 13bd
000001b0: 601d 7cbd fcf7 e6bd f9b7 04be 2c89 ff3d
000001c0: a5ef 97bd 0478 f5bd 525d 613e b35c 273d
000001d0: 6c97 383e 4624 693e a828 10bd f97d 1f3d
000001e0: 8292 6e3e 3206 30be d869 99bd bd70 173d
000001f0: 90da 8abc 003a 883d 760b 083e f482 d2bd
00000200: 805d 9f3c 5c75 673e 00c4 10be 3c7d 2dbe
00000210: 6c33 44be 98ed 183e 36a9 6abe 90d3 f8bd
00000220: 44ca 2c3e 725e 19be b40c 503e 3430 efbd
00000230: 9be4 213d 18f5 053d c0ce c8bb 9a58 1f3e
00000240: 8849 593e f6bb 1fbe 467b 0f3e b7cb a73d
00000250: 808e 98bb eae1 32be 18c8 973d 3eed 493e
00000260: 3cb8 4bbe 4a47 6cbe 2482 7bbe 8b37 963d
00000270: 6805 93bd 74f0 9ebd 2623 7e3e 9082 82bd
00000280: d877 22be 201a b83c 2e6b 0cbe be4f 5fbd
00000290: e623 073e 782e 6c3d 588f 2fbe d85c 833e
000002a0: fe4a 403e 4666 2ebe 10e0 de3d c4b2 f83d
000002b0: 4c93 37be c6cc 33be e09a 40be a0ec e33d
000002c0: c04a 323d 003e d83d 50bd e0bd 8964 563e
000002d0: 68ab 023d 7623 4cbe ccc9 80bd 647c 1a3e
000002e0: 1cbb 9e3d b58d 1cbd ccbd 32be 7a96 07be
000002f0: aeaa 5c3e 5e8d 12be b768 4c3e bc43 abbd
00000300: a0a9 233b 6c21 79be 9053 a6bd 20aa 573e
00000310: 77b0 65be 18ba 003e b44e 57be e841 153d
00000320: 3cf3 67be 4c87 4abe 2e89 4ebe 206c b1bd
00000330: f855 0b3d 6a92 3bbe 24ad 813d 6816 1a3e
00000340: 9e8e 503e 7687 623e 9070 283e 4a26 69bd
00000350: e09e bcbc 785b 623e 2c89 fe3d 03e6 45bd
00000360: 9304 533e d294 5fbe 3df6 5a3e b756 213e
00000370: 5ea5 3bbe c4a9 50be bae4 593e b862 7c3e
00000380: b299 b23c a9ed c7bd 2aad 113e 0abe ed3d
00000390: 606e ffbc 9ed3 4c3e 84d3 253e 9b2f 893d
000003a0: 5010 093e f6a3 6fbe e4ab efbd 3e8d 023d
000003b0: 3825 8b3d e0e6 0bbd 17c5 c93d c0de 9b3d
000003c0: dc71 6cbe 0064 a13d 1468 a6bc 601c 2bbe
000003d0: c024 0a3c 39ae 7bbd fcdb 07be 194a 64be
000003e0: 5126 5b3e 485e 1bbe 5c72 093d b83d 523e
000003f0: 70ec 00bd b6ad 27be 0ab6 72be 4808 2a3d

obs_encoder.2.bias f4 [32]
0.12591098 0.030852854 0.045460895 -0.20148775 -0.054305956 -0.010867208 0.07131163 -0.13957444
0.026509106 -0.06617158 0.20000808 -0.19882001 0.02611646 0.18232875 -0.19445252 -0.00055361824
0.11544921 0.10734959 0.017734984 0.11178752 -0.19133368 0.2080878 0.0055722296 0.19215673
0.033793572 -0.026147915 0.1070157 0.23649049 0.26029915 -0.21030161 0.015152633 -0.16193727
00000000: cfee 003e 20bf fc3c 3435 3a3d ce52 4ebe
00000010: ec6f 5ebd 600c 32bc d50b 923d 9aec 0ebe
00000020: a029 d93c f784 87bd ebce 4c3e 7997 4bbe
00000030: 30f2 d53c 63b4 3a3e 901e 47be b120 11ba
00000040: a370 ec3d 1ada db3d f548 913c dbf0 e43d
00000050: faec 43be f814 553e 4097 b63b bcc4 443e
00000060: 216b 0a3d 2734 d6bc 0c2b db3d 902a 723e
00000070: ee45 853e 4e59 57be c042 783c e2d2 25be

obs_encoder.4.weight f4 [64, 32]
0.08235276 0.12682566 -0.12405258 -0.010210366 0.10174046 0.116828755 -0.15364727 0.09796406
-0.03127643 -0.17088303 0.014680841 0.06178543 0.10594874 -0.14074679 -0.14848709 -0.10911351
0.100117385 -0.17503229 -0.010385783 -0.07194885 0.056564238 0.034693815 -0.08921069 0.0102606155
0.14188772 0.0367823 -0.08754461 -0.014681786 -0.18277477 -0.11334652 -0.0328149 -0.13023256
0.14960131 0.034292236 0.13683334 -0.040227883 -0.024569511 0.04456248 -0.052529033 -0.060219757
-0.1733025 0.1330888 0.15988553 -0.17491849 -0.058450636 -0.13362592 -0.07171215 0.13449568
0.094500996 -0.0137076685 0.07545323 0.052758865 0.096479096 -0.14196673 0.054607898 -0.1673167
-0.11618553 -0.06583436 -0.01721222 -0.16671818 0.004396661 0.028205492 -0.070111685 0.057301372
0.15437248 -0.030176686 -0.09408716 -0.15649368 -0.12900034 -0.09771027 -0.13060254 -0.06945523
0.09732114 0.055281933 0.15923104 0.17539965 -0.06361772 -0.06918478 0.024175508 -0.14067401
0.09609068 -0.031795513 -0.14792535 -0.1333778 -0.121733256 0.048556343 0.135425 0.13996217
-0.04864511 -0.10261599 -0.07840936 -0.120682225 -0.045547657 -0.15955219 0.09442614 -0.16627467
-0.11761374 0.11855883 -0.13214572 0.042234004 0.12460546 0.17413963 0.081718214 -0.055130307
0.10095181 -0.013531622 -0.06218523 -0.0071425517 0.039627228 0.11073494 0.06643907 0.08435506
0.026428428 -0.016542913 0.07418048 0.034790967 -0.17675635 0.028562112 -0.07845479 -0.10138354
0.06062552 0.036125697 0.029916765 -0.091534495 0.073911645 0.16578652 0.021612508 0.06517323
-0.16198304 0.10502566 0.061370768 0.07959183 0.06620062 -0.046466812 -0.017761046 0.16395396
0.1292709 -0.1336225 0.13276722 0.1686843 0.023233237 -0.14444569 0.02765403 -0.04633976
0.12701859 -0.17315589 0.051591437 -0.005023202 0.0073590325 0.1215253 0.0031913756 -0.1501907
-0.10899262 -0.083099954 0.018841198 0.061559208 -0.040111765 -0.069725215 0.077521116 -0.17883196
0.12504727 -0.020536618 0.122927554 0.13348947 0.020602306 0.05588346 -0.1000822 0.128434
0.103400245 -0.025981616 0.0710546 -0.008826621 0.13802518 0.074336894 0.13038151 -0.16148433
0.17212811 0.06493256 0.08760637 0.032521866 0.1189124 0.16631457 -0.015050024 -0.14459023
0.16482534 -0.03429425 -0.08520059 0.11070874 0.09996173 0.023652107 -0.011089558 -0.033248376
0.17871028 0.10763842 0.10520939 0.112654395 -0.076148815 0.03688652 -0.13640949 0.11985254
-0.17511037 -0.15936099 -0.15787724 0.12570639 0.01838534 0.01738 0.045449417 -0.07603616
-0.053646214 -0.10231057 -0.058814257 -0.09370097 0.022581125 0.13880539 -0.14604646 0.10162617
-0.11318746 -0.06432739 0.03454551 0.047530238 0.16136716 -6.608603e-05 -0.06728551 -0.05635473
0.0051794117 -0.13246737 -0.13851455 -0.07558785 0.0045381854 -0.11930804 -0.1008454 0.12613665
0.16325805 -0.055337176 -0.15156609 -0.067636184 0.07130169 0.057335258 -0.054765604 -0.15559101
-0.053120542 -0.039501075 0.10173384 -0.08760203 0.106027216 0.02450646 -0.029608494 -0.15743877
0.17441405 -0.031502113 0.11115635 -0.09138235 -0.17204042 -0.14081892 -0.09053747 -0.05626166
00000000: 90a8 a83d 96de 013e 470f febd 6149 27bc
00000010: 4d5d d03d ea43 ef3d b655 1dbe 62a1 c83d
00000020: b71b 00bd f6fb 2ebe e987 703c b812 7d3d
00000030: a7fb d83d ed1f 10be 000d 18be e776 dfbd
00000040: 580a cd3d aa3b 33be 2229 2abc eb59 93bd
00000050: e7af 673d 1a1b 0e3d 18b4 b6bd 241c 283c
00000060: 044b 113e 09a9 163d 974a b3bd e08b 70bc
00000070: 4f29 3bbe 3822 e8bd eb68 06bd af5b 05be
00000080: 1631 193e 0476 0c3d 0a1e 0c3e fec5 24bd
00000090: 0046 c9bc 2687 363d af28 57bd fea8 76bd
000000a0: 3676 31be 6e48 083e 08b9 233e d51d 33be
000000b0: ef69 6fbd 3cd5 08be d2dd 92bd 3cb9 093e
000000c0: bd89 c13d 2196 60bc 3987 9a3d ae19 583d
000000d0: d596 c53d ba5f 11be 88ac 5f3d 1255 2bbe
000000e0: aef2 edbd 2ad4 86bd a400 8dbc 2cb8 2abe
000000f0: de11 903b 340f e73c b796 8fbd d8b4 6a3d
00000100: d213 1e3e 1935 f7bc c5b0 c0bd e13f 20be
00000110: aa18 04be 521c c8bd acbc 05be 8b3e 8ebd
00000120: 4e50 c73d 4f6f 623d 760d 233e f79b 333e
00000130: 024a 82bd c0b0 8dbd b70b c63c d90c 10be
00000140: 31cb c43d 033c 02bd be79 17be 3194 08be
00000150: 494f f9bd 04e3 463d daac 0a3e 3e52 0f3e
00000160: 1840 47bd 5528 d2bd 1695 a0bd 3e28 f7bd
00000170: 2e90 3abd a661 23be 7e62 c13d e843 2abe
00000180: 79df f0bd f9ce f23d 3551 07be 90fd 2c3d
00000190: 2631 ff3d a951 323e e15b a73d 51d0 61bd
000001a0: d3bf ce3d bcb3 5dbc f1b5 7ebd 110c eabb
000001b0: 2950 223d 00c9 e23d 3511 883d 58c2 ac3d
000001c0: 6e80 d83c 0185 87bc efeb 973d f980 0e3d
000001d0: 9eff 34be 17fb e93c e8ac a0bd 2ca2 cfbd
000001e0: 7752 783d 8af8 133d 0114 f53c 7076 bbbd
000001f0: fd5e 973d f1c3 293e b70c b13c 8b79 853d
00000200: e2de 25be b117 d73d ea5f 7b3d 0b01 a33d
00000210: 3194 873d fc53 3ebd 9d7f 91bc 8ce3 273e
00000220: 975f 043e 56d4 08be 21f4 073e 94bb 2c3e
00000230: a153 be3c 92e9 13be b48a e23c c3ce 3dbd
00000240: 2911 023e c74f 31be 8b51 533d ac99 a4bb
00000250: 0a24 f13b 42e2 f83d 6626 513b 97cb 19be
00000260: 8637 dfbd 4f30 aabd db58 9a3c 8225 7c3d
00000270: 3c4c 24bd 18cc 8ebd 64c3 9e3d ba1f 37be
00000280: 640c 003e 693c a8bc 71c1 fb3d 77b1 083e
00000290: 2bc6 a83c 0ee6 643d e5f7 ccbd 3484 033e
000002a0: 82c3 d33d 66d7 d4bc 1385 913d 889d 10bc
000002b0: 7956 0d3e f13d 983d bb82 053e 265c 25be
000002c0: 5a42 303e 5dfb 843d f86a b33d a635 053d
000002d0: 5888 f33d 5e4e 2a3e 6094 76bc 760f 14be
000002e0: f9c7 283e 2178 0cbd a67d aebd 44bb e23d
000002f0: bcb8 cc3d 10c2 c13c fab0 35bc 732f 08bd
00000300: d4ff 363e 8871 dc3d 0578 d73d 59b7 e63d
00000310: e9f3 9bbd 5216 173d eeae 0bbe 4075 f53d
00000320: 2250 33be 872f 23be 92aa 21be 2db9 003e
00000330: da9c 963c 8060 8e3c 2b29 3a3d d9b8 9bbd
00000340: 22bc 5bbd 3488 d1bd 38e7 70bd 4be6 bfbd
00000350: 0dfc b83c 0023 0e3e 348d 15be 6221 d03d
00000360: d4ce e7bd 14be 83bd 987f 0d3d 11af 423d
00000370: 6f3d 253e ab97 8ab8 fccc 89bd 38d4 66bd
00000380: 0eb8 a93b 87a5 07be c2d6 0dbe cdcd 9abd
00000390: 0fb5 943b c657 f4bd 0888 cebd f729 013e
000003a0: 1e2d 273e 3ca9 62bd 2434 1bbe d784 8abd
000003b0: 9f06 923d 60d8 6a3d e651 60bd 4053 1fbe
000003c0: ed94 59bd e1cb 21bd d559 d03d b168 b3bd
000003d0: cc24 d93d c6c1 c83c 838d f2bc a137 21be
000003e0: 9999 323e 5c08 01bd f1a5 e33d ab26 bbbd
000003f0: 5d2b 30be d632 10be b66b b9bd a072 66bd

obs_encoder.4.bias f4 [64]
0.032589708 0.066479735 -0.0831712 0.06403452 0.02140456 0.10199663 -0.08278341 -0.11406869
0.08213986 -0.025516108 -0.076983035 0.1271056 -0.019652005 -0.1253073 -0.022968484 -0.08184903
-0.044562586 -0.1454334 0.1410204 0.14591381 -0.15283531 0.110513985 0.042648703 -0.068463914
-0.051814467 -0.0010642012 0.021446604 0.14550367 0.16056938 0.010195813 0.16259667 -0.10448201
-0.010052318 -0.15609413 0.0846279 0.047775578 -0.12268457 -0.12526166 -0.0108807525 -0.046502117
-0.07199251 -0.17939308 -0.11255872 0.14642219 -0.06368653 0.074726336 0.039903853 0.007094385
0.037917484 0.12266348 0.066869594 0.013384729 0.1434018 0.011914399 0.063285805 0.18582901
-0.12789328 0.12367275 -0.084865846 -0.009073736 -0.109204724 0.13659407 -0.15624928 -0.08981788
00000000: c97c 053d 8726 883d a955 aabd 8824 833d
00000010: 9e58 af3c 9ce3 d03d 598a a9bd d89c e9bd
00000020: f138 a83d 2807 d1bc 48a9 9dbd f827 023e
00000030: 3efd a0bc 8f50 00be 6728 bcbc 77a0 a7bd
00000040: 4287 36bd 7eec 14be a767 103e 6e6a 153e
00000050: dc80 1cbe 2855 e23d 68b0 2e3d cf36 8cbd
00000060: 683b 54bd ab7c 8bba cab0 af3c eafe 143e
00000070: 4d6c 243e 570c 273c be7f 263e aafa d5bd
00000080: 7ab2 24bc 24d7 1fbe 6451 ad3d 53b0 433d
00000090: 0c42 fbbd 9844 00be 2f45 32bc 0179 3ebd
000000a0: cf70 93bd d2b2 37be 3085 e6bd b3ef 153e
000000b0: 156e 82bd 1f0a 993d 3972 233d 0478 e83b
000000c0: 5d4f 1b3d fe36 fb3d edf2 883d 9f4b 5b3c
000000d0: ecd7 123e 9d34 433c fd9b 813d f649 3e3e
000000e0: 75f6 02be 2448 fd3d 25ce adbd 02aa 14bc
000000f0: baa6 dfbd 51df 0b3e d0ff 1fbe 70f2 b7bd

obs_encoder.7.weight f4 [10, 64]
0.02902846 -0.04780881 0.01342316 0.11570745 -0.11601081 -0.103626095 -0.106479056 0.11945455
0.030317768 -0.079441704 -0.1086417 0.08103506 0.11472108 -0.09365643 0.028643835 -0.031012505
0.04659482 -0.06990202 0.08531502 0.1373078 0.04753103 -0.021373287 -0.004003171 0.033909447
-0.07201953 -0.06794451 -0.13868262 0.05116697 -0.05096119 0.10733105 -0.035533186 -0.046154574
0.05211123 -0.0018748738 -0.08468853 -0.0054806503 -0.064602934 -0.12322634 -0.10273156 0.033750962
0.010513663 -0.054580916 0.04459077 -0.050462343 -0.11707812 0.034221336 -0.077144794 -0.04879099
0.069953926 0.087081894 -0.14264308 0.099974334 0.11171505 -0.10752485 -0.1505272 -0.10240819
-0.033164263 -0.028935468 0.034428403 0.029793458 0.017706607 -0.09462179 0.10195127 0.096059345
0.048876263 0.027284382 -0.069755 0.016783684 -0.10765953 0.091118194 -0.12499163 0.10632008
0.11761011 -0.06981832 -0.11146788 0.032519232 -0.09587683 -0.12234744 -0.09993598 0.08830811
-0.10524942 -0.049994946 -0.050661854 0.076800756 0.02065722 0.07160395 -0.043766763 -0.09736817
0.04502237 0.019127464 0.08633399 -0.1314865 -0.08863864 0.08195831 -0.0013752755 0.08293386
-0.043112375 0.115842916 0.04881987 -0.047195513 -0.052207243 -0.0021228872 -0.02947862 -0.08605944
-0.06695771 0.015397214 0.061663672 0.08873695 -0.058753148 -0.09026221 -0.09004805 -0.109769374
0.111798696 -0.07574278 -0.06544563 0.085629456 0.099338636 -0.12002622 -0.035349913 0.011411391
0.019104209 -0.09714624 -0.10066691 -0.09014012 0.008350128 -0.07879793 -0.11062784 0.11160876
0.049899407 -0.037269294 0.019933656 -0.048017815 -0.06580694 -0.09441276 0.09178068 -0.1153588
-0.09422383 0.08628383 -0.07867308 -0.030392548 0.0005768856 -0.10562118 -0.10157072 -0.10132923
0.0018467341 -0.045210436 0.09277505 0.06747135 0.14633705 -0.108092815 -0.04222183 0.108644314
0.043305323 -0.07828628 0.10936854 -0.024483442 0.10455354 -0.09970248 0.0828446 -0.0071016303
-0.119441584 0.07356949 -0.04584687 0.026911477 -0.025645243 0.0020273598 -0.0029590002 0.053139556
-0.010089412 0.08810595 0.05046037 0.025704889 0.06143767 -0.032629356 -0.06767719 -0.081595644
-0.08378885 -0.09222965 0.039114423 -0.005288784 -0.1123267 0.060230628 0.112566315 0.13211825
0.0051224977 0.004733864 0.07347374 -0.10833235 0.015173183 0.09882842 0.10408504 0.02626967
-0.021222077 0.04463774 0.026555538 -0.011700187 0.077141024 0.12671106 -0.07028492 0.11242227
-0.032611728 0.02964606 0.11125839 -0.07057816 0.058307596 -0.024533737 -0.075064264 -0.007605195
0.10237713 0.06971131 -0.06460099 0.10049158 0.026982151 0.10662405 0.13186549 -0.022351636
0.09973109 0.0002776336 0.015576355 0.0062364396 0.0030539338 -0.009692965 -0.12341953 0.010869026
0.12611765 0.029675841 -0.115425915 0.021952953 -0.035452846 0.059390124 -0.10943727 0.03434603
-0.089277446 0.015804874 0.07518576 0.08234866 -0.024440324 0.10995823 -0.00863416 -0.06410617
0.07690172 0.00980809 -0.09615762 0.072829194 0.12038787 0.10426928 -0.007548357 -0.11465709
0.107020885 -0.055376038 0.01881653 -0.11302973 0.07190943 0.01058735 0.12537871 0.049075346
00000000: 18cd ed3c 2cd3 43bd d0ec 5b3c 07f8 ec3d
00000010: 1397 edbd eb39 d4bd b111 dabd 96a4 f43d
00000020: f85c f83c 55b2 a2bd 8a7f debd b6f5 a53d
00000030: e3f2 ea3d f1ce bfbd 7aa6 ea3c f00d febc
00000040: 36da 3e3d ca28 8fbd a4b9 ae3d 6a9a 0c3e
00000050: e6af 423d 0817 afbc 082d 83bb a2e4 0a3d
00000060: fa7e 93bd 7e26 8bbd d102 0ebe 7594 513d
00000070: aebc 50bd 62d0 db3d 3f8b 11bd 940c 3dbd
00000080: 9672 553d 53be f5ba 2e71 adbd 0797 b3bb
00000090: 8b4e 84bd 175e fcbd ed64 d2bd 733e 0a3d
000000a0: 8041 2c3c 3d90 5fbd d0a4 363d 9ab1 4ebd
000000b0: a7c6 efbd ac2b 0c3d 17fe 9dbd 10d9 47bd
000000c0: 0144 8f3d fe57 b23d 0711 12be 58bf cc3d
000000d0: dcca e43d fd35 dcbd cd23 1abe 63bb d1bd
000000e0: 40d7 07bd 130a edbc cc04 0d3d 6911 f43c
000000f0: 720d 913c 12c9 c1bd d4cb d03d c3ba c43d
00000100: 7a32 483d 7f83 df3c b6db 8ebd f07d 893c
00000110: 9a7c dcbd 2d9c ba3d 9dfb ffbd 58be d93d
00000120: 92dd f03d e8fc 8ebd 4649 e4bd e332 053d
00000130: 125b c4bd 4b91 fabd 3cab ccbd e2da b43d
00000140: 028d d7bd 80c7 4cbd ce82 4fbd b749 9d3d
00000150: 5539 a93c 17a5 923d c744 33bd f768 c7bd
00000160: 6069 383d 33b1 9c3c e0cf b03d 66a4 06be
00000170: 2d88 b5bd c2d9 a73d 9742 b4ba 3ad9 a93d
00000180: 9a96 30bd 0d3f ed3d 58f7 473d 1550 41bd
00000190: 43d7 55bd 2320 0bbb 267d f1bc ef3f b0bd
000001a0: 2021 89bd 9944 7c3c 0c93 7c3d b8bb b53d
000001b0: 24a7 70bd 65db b8bd 1d6b b8bd c4ce e0bd
000001c0: b7f6 e43d 081f 9bbd 5c08 86bd 7f5e af3d
000001d0: 0e72 cb3d 4fd0 f5bd 12cb 10bd d8f6 3a3c
000001e0: 6e80 9c3c 9cf4 c6bd 742a cebd 629b b8bd
000001f0: face 083c cf60 a1bd d990 e2bd 2293 e43d
00000200: 5263 4c3d b0a7 18bd e84b a33c 54ae 44bd
00000210: cac5 86bd 7a5b c1bd 82f7 bb3d 3c41 ecbd
00000220: 6cf8 c0bd 94b5 b03d 5a1f a1bd cbf9 f8bc
00000230: 233a 173a eb4f d8bd 4f04 d0bd b385 cfbd
00000240: 1d0e f23a 942e 39bd d800 be3d 6b2e 8a3d
00000250: 61d9 153e c45f ddbd ccf0 2cbd e980 de3d
00000260: ec60 313d 8f54 a0bd 9dfc df3d 8091 c8bc
00000270: 2b20 d63d d030 ccbd 6eaa a93d cbb4 e8bb
00000280: ca9d f4bd 9aab 963d edc9 3bbd 7575 dc3c
00000290: f915 d2bc 74dd 043b c9eb 41bb dda8 593d
000002a0: 104e 25bc e470 b43d 88af 4e3d 0f93 d23c
000002b0: 11a6 7b3d 5ca6 05bd 579a 8abd 9e1b a7bd
000002c0: 7d99 abbd e6e2 bcbd 7236 203d 894d adbb
000002d0: 8a0b e6bd 64b4 763d 2b89 e63d 024a 073e
000002e0: a0da a73b 881e 9b3b 6679 963d 5add ddbd
000002f0: f198 783c 8e66 ca3d 8a2a d53d 7e33 d73c
00000300: ecd9 adbc 10d6 363d 008b d93c 24b2 3fbc
00000310: 1dfc 9d3d 8bc0 013e 8af1 8fbd a63d e63d
00000320: e093 05bd 4bdc f23c 70db e33d 488b 90bd
00000330: f2d3 6e3d fafa c8bc 4bbb 99bd 0035 f9bb
00000340: 1aab d13d cec4 8e3d 864d 84bd 88ce cd3d
00000350: ac09 dd3c b65d da3d bf07 073e c71a b7bc
00000360: d03f cc3d 5a8f 9139 f833 7f3c 0c5b cc3b
00000370: 8224 483b 3ecf 1ebc 61c3 fcbd 0014 323c
00000380: fc24 013e c01a f33c 6c64 ecbd aed6 b33c
00000390: 0137 11bd 0f43 733d a620 e0bd 6cae 0c3d
000003a0: 18d7 b6bd 3979 813c fefa 993d 6aa6 a83d
000003b0: 1337 c8bc c831 e13d 4b76 0dbc 184a 83bd
000003c0: a67e 9d3d 1cb2 203c 49ee c4bd 7927 953d
000003d0: ea8d f63d 228b d53d 3558 f7bb 56d1 eabd
000003e0: c42d db3d fcd1 62bd 2025 9a3c 227c e7bd
000003f0: 4045 933d 9176 2d3c 4763 003e 3b03 493d

obs_encoder.7.bias f4 [10]
-0.11337835 -0.040623646 0.13039161 0.037738696 -0.023162767 -0.03238776 -0.07434948 0.044839974
0.010001671 -0.09856583
00000000: e932 e8bd fb64 26bd 6185 053e e493 1a3d
00000010: d8bf bdbc 07a9 04bd 8a44 98bd 1faa 373d
00000020: 0cde 233c e2dc c9bd
